8M/unifiedClosest1M/critic.pt (torch, 107199 bytes, 15 tensors)

base.feature_norm.weight f4 [251]
00000000: 5aee 7f3f ceff a93f 3ab5 913f 0328 9b3f
00000010: 5d76 4d3f beea 8e3f 7da9 743f 9372 863f
00000020: 3542 723f 90a3 5d3f cfe0 6c3f e7c1 6b3f
00000030: 2a99 4b3f 05a2 633f 47cb 643f 1c60 5d3f
00000040: c669 743f 17a9 6b3f a358 4f3f f9be 723f
00000050: 3bc0 6c3f 72b8 6e3f 9263 763f 2e3a 8b3f
00000060: fc11 8a3f 0f88 903f 243c 4e3f 017c 983f
00000070: b478 6d3f 8638 753f ceac 6c3f ec3f 6a3f
00000080: db01 5f3f 020b 733f 077d 7e3f 0786 553f
00000090: 4551 713f f6d0 533f b926 643f 7bf1 683f
000000a0: 2aef 6a3f 835c 4b3f 63a5 603f 804b 573f
000000b0: 0b65 7f3f 7779 ae3f da44 663f c321 853f
000000c0: 5710 843f 607d 973f 718b 733f 03d9 743f
000000d0: 8b42 5c3f 2b8c 653f c96b 713f 7802 6a3f
000000e0: 9df5 793f 22ca 5f3f c3ec 643f 0a76 733f
000000f0: d251 573f c175 703f b682 6f3f df37 6f3f
00000100: d572 6d3f 7b31 673f 8ebc 7d3f 1a73 b43f
00000110: e8fa 7a3f 46fe 843f 9e61 633f 1d97 983f
00000120: d525 643f db79 6a3f ae83 653f 6620 713f
00000130: 0ee9 6f3f 27b2 7a3f 7cbd 6f3f 6881 763f
00000140: 0d40 5f3f a3d4 6f3f 8619 603f a068 673f
00000150: a3cb 673f 5184 623f 519c 703f 21b3 673f
00000160: 699e 753f 6813 853f 6e54 763f 42ac 673f
00000170: 8942 5a3f 0f3e 9b3f 68b0 583f 38de 653f
00000180: e759 613f 94a8 633f 39c6 693f 8f84 4c3f
00000190: 1f75 623f c82f 613f 8c3f 5a3f 203e 6e3f
000001a0: 6208 703f 23e3 633f 5cdf 6a3f e874 533f
000001b0: b1d8 6e3f 84b1 693f b81b 5b3f 8f7f 643f
000001c0: ef30 733f b923 7a3f 127e 463f 3a7e aa3f
000001d0: 4933 693f b37a 613f dd51 753f a07f 6e3f
000001e0: 4033 683f 6467 6e3f f1ce 7a3f d71d 543f
000001f0: 0e1b 693f 8025 6c3f 3e50 603f 50e3 623f
00000200: b791 6e3f ffdf 653f 4d43 6c3f 4403 713f
00000210: a9bd 7b3f 94e5 703f 7887 813f 0002 6b3f
00000220: 48ad 373f 7e30 ad3f e0e5 6a3f 7d81 6a3f
00000230: 6324 743f 4fb6 6f3f 5ba9 693f 50fa 5e3f
00000240: 8222 6d3f 0663 523f d090 7a3f 3c4b 583f
00000250: c4ad 6d3f f4a4 753f 0e24 613f b26a 753f
00000260: 0439 6e3f bd57 703f f805 563f 0803 743f
00000270: 8ca6 6b3f d64c 693f 2724 743f 610d 903f
00000280: 46a1 7f3f aaf7 6d3f 3d50 0d3f 0790 6a3f
00000290: cfeb 423f a51b 803f b4c7 693f 1841 953f
000002a0: d903 793f 6e0a 803f 2d5e 253f e9bb 603f
000002b0: b839 433f a400 763f 00e7 4c3f f776 913f
000002c0: 5c9c 6a3f 977e 723f 1568 493f 680a 6b3f
000002d0: bdac 553f 58bc 7c3f b45c 303f 56b6 903f
000002e0: 8929 6c3f 4065 713f 659b 543f 1bae 5e3f
000002f0: 7039 2e3f 359d 6b3f 4a9a 543f cc5e 8e3f
00000300: 0d16 7d3f 82fd 673f b18d 253f 9ca1 773f
00000310: b6ad 303f c97f 6e3f ebd2 313f 46b9 8f3f
00000320: abc1 623f c230 5f3f 4804 373f b029 3d3f
00000330: 1329 553f c22a 5e3f 2aca 6d3f 9cb5 943f
00000340: 8e44 5e3f a800 613f 857e 373f e1dc 7c3f
00000350: 9233 793f 6921 7f3f 1464 683f 804a 913f
00000360: b1db 873f 7e32 703f b70e 7e3f 92d8 723f
00000370: a33c 783f 0bb0 703f b560 823f 2454 663f
00000380: 9e07 6f3f 5276 693f 9a35 993f 9e76 7c3f
00000390: 0f46 893f 428c 5c3f 18e2 683f fd89 5a3f
000003a0: 89b7 633f 8e4a 523f 1874 6f3f 0518 623f
000003b0: 517a 6f3f f761 6e3f 6e4b 703f 91df 6a3f
000003c0: 6134 663f fd63 6d3f b577 603f 78c6 523f
000003d0: 2bf8 4a3f 5431 743f ed20 503f 3a48 6c3f
000003e0: d67f 823f 83f3 753f ef8b 693f
0.9997307 1.328119 1.1383431 1.2121586 0.80258733 1.1165388 0.9557112 1.0503715
0.94632274 0.865777 0.9253053 0.92092746 0.79530585 0.889191 0.89372677 0.86474776
0.954739 0.92054886 0.80994624 0.9482265 0.9248082 0.9325019 0.9624568 1.087713
1.0786738 1.1291522 0.8056052 1.1912843 0.92762303 0.9578937 0.9245118 0.9150379
0.87112206 0.9493867 0.99409527 0.83407634 0.9426463 0.82740724 0.89121586 0.9099347
0.91771185 0.79438037 0.8775236 0.8409958 0.99763554 1.3630818 0.8994881 1.0400928
1.0317487 1.1835136 0.95134646 0.95643634 0.86039037 0.89667004 0.9430509 0.91410017
0.976404 0.87417805 0.8942377 0.9510199 0.8410922 0.9392968 0.93558824 0.9344463
0.92753345 0.90309876 0.99115837 1.4097626 0.980391 1.0390098 0.88820827 1.1921116
0.8912023 0.91592187 0.8965405 0.9419006 0.9371499 0.9792809 0.93648505 0.9629121
0.8720711 0.9368383 0.87538946 0.9039402 0.905451 0.8848315 0.9398852 0.90507704
0.9594484 1.0396547 0.9622258 0.9049722 0.85257775 1.2128314 0.84644175 0.89792204
0.88027805 0.88929105 0.9131809 0.7988977 0.8845996 0.87963533 0.85253215 0.93063545
0.9376279 0.8901846 0.9174707 0.8260026 0.93299395 0.9128649 0.8558917 0.8925714
0.9499654 0.9771076 0.7753612 1.3319771 0.9109388 0.8807785 0.9582804 0.9316349
0.907032 0.9312651 0.9797202 0.8285803 0.9105691 0.9224472 0.8762244 0.886281
0.93191093 0.89794916 0.9229019 0.9414561 0.98336273 0.9410031 1.0119467 0.91799927
0.7174878 1.3530424 0.9175701 0.91603833 0.9536802 0.93637556 0.9127404 0.87100697
0.9263078 0.8218235 0.97877216 0.844898 0.9284327 0.95954823 0.8794564 0.9586593
0.9305575 0.9388388 0.8360286 0.95317125 0.92051005 0.9113287 0.95367664 1.1254083
0.9985546 0.9295603 0.5520056 0.9162602 0.76141065 1.0008436 0.9132035 1.166049
0.97271496 1.0003183 0.64596826 0.8778673 0.76259947 0.9609473 0.8003998 1.136443
0.91644835 0.9472441 0.7867444 0.91812754 0.834667 0.9872489 0.68891454 1.1305645
0.9225088 0.9429512 0.83049613 0.86984414 0.6805639 0.92036754 0.83047926 1.112268
0.9886177 0.906212 0.6466933 0.9673097 0.6901506 0.93163735 0.6946246 1.1228416
0.88576764 0.87183774 0.7149091 0.73891735 0.832658 0.86783993 0.928866 1.1617923
0.86823356 0.87891626 0.7167743 0.98774534 0.97344315 0.99660355 0.9077771 1.135086
1.061392 0.93827045 0.99241203 0.9486171 0.96967524 0.9401862 1.0185763 0.8997214
0.93371 0.9119617 1.1969483 0.98618495 1.0724505 0.86151516 0.9096999 0.85366803
0.8895193 0.8214501 0.9353652 0.883179 0.93546015 0.9311823 0.93865097 0.91747385
0.89923674 0.92730695 0.8768266 0.8233409 0.79284924 0.9538777 0.8130024 0.9229771
1.0195262 0.96074694 0.91229147

base.feature_norm.bias f4 [251]
00000000: 4ef0 4ebc 63b1 393c 03f5 833c c5ad 313d
00000010: 3a92 993c 4aeb 13bd 440b 203d a23a 003d
00000020: 5a32 103d 7f8e b53d 9c24 6c3d be2b 583d
00000030: 39f6 52bc 7df3 a33d 3c7d 85bd ff95 d43d
00000040: 775e 133d 072b 123d 5893 be3d 4eae 6c3d
00000050: 4846 923d 73d5 cd3c 2020 34bd e9d4 77bc
00000060: 15c3 963c 59ee 0c3c 2122 403c 03db d2bc
00000070: bc5e aa3d 41f4 8a3d 83fd 9d3d d002 2f3d
00000080: bada 613d 2411 6f3d 4295 f3bc 01e6 053e
00000090: ef5e adbc 7ae5 cd3d bbd4 9d3d 3fd6 5c3d
000000a0: 78c7 193d b134 d43d 0011 ec3d c8b6 c83d
000000b0: a2ef 25bd b054 d03c cf97 b93d f3d7 053d
000000c0: 0adc a93c f403 21bc e505 e13c c193 503d
000000d0: da44 dd3d a0ba 963d dabc ff3c d43e 7c3d
000000e0: 1950 013d e4a2 8e3d 3a31 a43b c638 6f3d
000000f0: f26b eb3d e6f0 6f3d b99e 913d b3d5 183d
00000100: dfe4 3c3c 539c bd3c 36ac f8bc d8f8 483d
00000110: 5496 3b3d 4a41 143d d2e4 813c 7a40 89bc
00000120: 0c34 a13d a097 453d 4c0b 913d cd5a 4b3d
00000130: e126 c83d 874c 533d ebf3 7d3c b783 be3c
00000140: 9eb9 3cbd 990a 163d 65fb 803d ddb0 6a3d
00000150: a12c 253d 10ca 463d 53e5 5c3d 00ce 8a3d
00000160: c151 41bd f09f 9b3c e900 603d 5a50 483d
00000170: d365 963b 7a2e 69bc a063 ae3d c219 993d
00000180: 54c4 293d c1d2 663d bcb0 5c3d 452e 523d
00000190: 0470 2f3c d384 7c3d 33d8 81bd 737f 163d
000001a0: f97b 613d dd0f 773d d839 a33d c269 e63d
000001b0: 3b2e 3e3c bf81 c03d 8d62 bcbc 9cd1 423d
000001c0: 6eb1 573d da92 233d 2c00 b73c 7800 46bc
000001d0: 52b1 dc3c d8e5 de3d c101 a63c 7b63 7e3d
000001e0: 724c 813d 3fd8 0d3d c903 ef3b 9946 dd3d
000001f0: a09a 79bc 24ac bf3c 11b9 9d3d 2ab6 a03d
00000200: a289 033d 284e 813d 4269 c03d afde de3c
00000210: 980d e9bc aed7 813d 0c71 093d 9d09 bf3c
00000220: 7e5b 493b 8e92 82bc f899 5f3d 4ed4 df3d
00000230: 78bb 833d f9e6 e53c 66c3 2c3d 29df ba3d
00000240: 09a6 7f3c 627b c83d 562a 1abd e074 e43d
00000250: e41c 913d 7e5f ce3c 9b99 6e3d 9952 6d3b
00000260: 3963 b43c 3431 b03d 70be bc3c 3aa8 bcba
00000270: cbf3 25bd e433 553d e06a d4bc ef30 5f3c
00000280: ac28 1a3d 947b dc3c c4bc 99bc e270 963b
00000290: f5da 7ebd 5727 153d 7f4b 22bc 600e c5ba
000002a0: 7949 023d 06e9 353c 326a 13bc f8fe d0bb
000002b0: 313d e8bd 3aa4 033d 2567 aebc c7e2 8a3c
000002c0: 3657 7a3d 9fb3 0b3d 98a2 bebb 2269 10bd
000002d0: dc3e 4cba 5168 e83c c7ea 80bd 9102 073c
000002e0: cda1 353d 0ff6 1a3d 49d0 9dbc ae2f 97bc
000002f0: bc0b 20bd dd51 e83c 8265 d6bb ec12 1e3c
00000300: 1110 a83c 2589 853d e929 4ebb 0a39 9fbb
00000310: 48e5 02bd d58c 023d 7670 bcbd d4ad 803c
00000320: ed97 993d bb3a 733d 9b28 b5bc a8f2 7cbd
00000330: c409 ffbc 770d 933c 56cf 3ebc 3ee8 583b
00000340: 2f89 b43d bacd c23c 8857 cbbc f777 9ebc
00000350: fc42 91bd d8af df3c 494e 9fbc 7ebf af39
00000360: 250d 183b 190b 5c3d 529c 9f3c c258 3b3b
00000370: 1642 5bbc cd7d 01bd 43ab 9ebc b610 7b3d
00000380: b3eb 3b3d 90d3 0d3d 960f 13bd 9ef3 953c
00000390: abbb b13c 99dd ae3d dc17 823d a412 d43d
000003a0: 9ace 5f3d 8812 1b3c 5cb3 a73d 9b14 a7bc
000003b0: 8cfb a63d c8af 2e3d a98a 393d ac72 a43d
000003c0: f9e7 a33d 2c5c 963d 1ebe a73d f641 433c
000003d0: dc02 d9bc d73b 63bc 37de 1bbd 47dc 6dbc
000003e0: f8f6 2b3c eee8 f73c 8a77 933c
-0.012630535 0.011333796 0.016108042 0.04337861 0.018746484 -0.03611306 0.039073244 0.031305917
0.03520427 0.088650696 0.0576521 0.05277609 -0.012876087 0.08005426 -0.06518027 0.10380172
0.03597876 0.035685565 0.09305447 0.057783417 0.07142311 0.025126195 -0.04397595 -0.015126445
0.01840357 0.008601748 0.011726887 -0.025739199 0.083188504 0.06784869 0.07714369 0.04272729
0.055140235 0.058365956 -0.029734258 0.13076021 -0.021163432 0.10053535 0.07706591 0.05391526
0.037543744 0.103616126 0.1152668 0.09800488 -0.040511735 0.025431007 0.09062158 0.03267665
0.020734806 -0.009827603 0.027468631 0.05092216 0.10804148 0.07359815 0.031217981 0.061583355
0.031570528 0.06964663 0.005010751 0.058403753 0.11495198 0.058579348 0.07110352 0.037313174
0.0115291765 0.02314583 -0.030355554 0.04906544 0.04579766 0.036195077 0.01585618 -0.016754378
0.07871255 0.048240304 0.07082233 0.04964714 0.097730406 0.051586654 0.015500049 0.023256166
-0.046075456 0.0366312 0.0629795 0.057297576 0.040325765 0.048532546 0.053929638 0.06777573
-0.047197107 0.018997163 0.054688368 0.048904754 0.004589775 -0.014232272 0.08515096 0.07475616
0.041447 0.056353334 0.053879485 0.051313657 0.010707859 0.06165011 -0.06340065 0.03674264
0.05504987 0.060317863 0.07970017 0.112506405 0.011607702 0.09399747 -0.022996211 0.04756318
0.052659445 0.03993497 0.02233895 -0.012085073 0.026940022 0.10883683 0.020264508 0.06210659
0.06313409 0.034630056 0.0072941524 0.10804481 -0.015234619 0.023397513 0.07701314 0.07847245
0.03211368 0.06313735 0.09395076 0.027205793 -0.028448865 0.06339966 0.033555076 0.023320014
0.00307247 -0.015939023 0.054590195 0.10929166 0.06432241 0.028064238 0.042178534 0.09124596
0.015603551 0.097891584 -0.03763803 0.11155105 0.070855886 0.025192019 0.05825196 0.0036212562
0.02201997 0.08603135 0.023040026 -0.0014393397 -0.040515702 0.05205144 -0.025929868 0.0136225065
0.037636444 0.026914395 -0.018766768 0.0045910934 -0.062220532 0.03641447 -0.009905695 -0.0015034191
0.03180835 0.01110292 -0.008997487 -0.006378051 -0.11339796 0.03213904 -0.021289418 0.016953839
0.061118327 0.034106847 -0.0058177225 -0.035256512 -0.0007791349 0.028370054 -0.0629478 0.008240358
0.04434376 0.037832316 -0.019264357 -0.018455353 -0.03907369 0.028359348 -0.0065428624 0.009648066
0.020515474 0.06520299 -0.0031458086 -0.0048590945 -0.03195694 0.03187259 -0.09201138 0.015707888
0.07499681 0.05938218 -0.022114089 -0.061754853 -0.031132586 0.017950756 -0.011646112 0.0033097412
0.08815228 0.023779739 -0.024822012 -0.019344313 -0.070928544 0.027305529 -0.019446509 0.00033521274
0.0023201194 0.05372152 0.019483719 0.002858684 -0.013382455 -0.031614114 -0.019368773 0.061295234
0.045879077 0.03462559 -0.035903536 0.018304642 0.021695932 0.0853836 0.06352207 0.10355118
0.05464039 0.009464867 0.08188507 -0.020395568 0.081534475 0.042648107 0.045298252 0.080296844
0.0800323 0.07341799 0.08190559 0.011917582 -0.026490621 -0.013869247 -0.038053717 -0.01451785
0.010495894 0.030262437 0.018001337

base.mlp.fc1.0.weight f4 [64, 251]
00000000: 1f1a 3e3e a1fe 073e 92a4 98bc cd0f d0bd
00000010: 47ad 8e3d 2dc4 373d 752c 033e 0476 243e
00000020: be84 663d eda1 653d 0cd6 313c 824d 223a
00000030: 7548 a03d 2ac2 dabd c9b2 b03c ffd1 d63c
00000040: bbf1 53bd 6552 d33d 0cd2 a2bc d91a 643e
00000050: ab76 ab3d 8037 bcbd 4071 04be 8444 233d
00000060: c8ef 053e f72a a23c d860 ff3c 39f0 58bd
00000070: 4147 8b3d ab9b 3abe a523 01be 6798 903d
00000080: 13a4 803d 4087 d33c 221c 733d 3750 1b3e
00000090: 2f7a 0a3e 19b3 a03d d5a6 47bc 57ad 93bd
000000a0: cd32 84be 06ea cb3d 7d41 ccbc 87b3 05be
000000b0: 71ed 2fbe 322a 93bc c24c c53c 2082 69bd
000000c0: c227 5e3e 0301 4bbd 4087 2c3d 9b54 d43d
000000d0: 8685 a0bd b6e9 533d 80a1 783d 5d95 753c
000000e0: 32ea 91bd 8d90 99bc 43e9 2cbe 963c 9cbc
000000f0: 56d5 dd3d 4444 843d 8230 993c 0ae2 cf3d
00000100: 7c52 bb3c 167e e1bd 8410 70bd 64b9 9fbd
00000110: c4f3 073e 7fa2 5a3d 3ffc ac3c 571f b0be
00000120: cc98 243d 0efa 353e 1470 cabd f941 8d3d
00000130: b8e4 b03c bec5 3a3e 3002 313c 8a73 26bc
00000140: a9fc 1dbe 27e6 123d 18ac 5bbd d374 5a3c
00000150: 513a 88b9 405b 9fbd 874d 263d 5baa 82bd
00000160: 37b4 13bd 3f7d e23d 9af9 193e 09f5 6dbd
00000170: b2e0 7ebd f11e e4bd c0e6 d1bd 12e9 573d
00000180: 2d7b d33d 3202 d93d 7000 f5bd 4970 86bd
00000190: 59f0 31bd c8a4 e2bc fe9f 6f3d fbbf f03c
000001a0: 8e9e ca3d 197b 0e3e b494 66bd 7cf6 a53d
000001b0: b351 3a3d 9e27 24be 5a2b a23c 32a4 15bd
000001c0: d31b cdbd eadc dcbc 1f6f 4bbd 06b2 37bd
000001d0: c7ee cd3c eb28 1f3e 03cf d93c f5e3 993c
000001e0: 66d2 2cbd 92a4 ee3d 347b a53d e3d1 953d
000001f0: fd00 d4bc 51cb c6bd b629 04bd 8a17 293d
00000200: b95b b6bd 066f 853d 4e23 f3bd 02fd bd3d
00000210: a22f 2d3c ac89 b73d b2c5 313c 8d77 97bd
00000220: cecc 8d3c 1413 1a3e 5152 be3d 9bc8 d7bc
00000230: b34a c73d 997f 0e3e b3c0 2f3e 8dfe c6bb
00000240: 18cb 243c 2f45 3f3e e3f2 5b3c d7c9 0c3d
00000250: fe85 7f3d 6919 2d3e 8929 fd3d 017d 60bd
00000260: 6d9c 0b3e 6677 8dbb 77c4 123d 8613 46bd
00000270: ae53 7abd 8e36 ef3c 427d e8bd fdee 79bd
00000280: 0f8d d8bd 0bab 183e 0617 76bc da9d 64ba
00000290: 0ac7 c7be d866 27bd ca98 07be 85ed d13c
000002a0: 4bbd f1bd f318 69bd 5d80 863d 1d78 4cbd
000002b0: c332 dc3c fff3 5d3e f90d 10be 4566 7abd
000002c0: 555a debd 3ebb 54bd cb09 fbbd 2956 1f3d
000002d0: 21f9 cfbd 256f 773e 45df c2bd d1b0 473d
000002e0: a56b cbbb 0ea5 f4bc 4c44 f2bd 5b22 283c
000002f0: 3f10 67bd f513 893b 5a43 acbd 934d ee3d
00000300: e2d3 2e3e f339 553d 34f9 1ebe 747e 76be
00000310: 447c b23a a8a8 1b3d 85c4 87bc 076c 1abd
00000320: a787 0f3d 24e9 283e 0d3e 623d 35f9 b0bd
00000330: 6c63 ae3d ab27 083e 89c9 84bd 40df 8ebd
00000340: ca20 2e3e 70f9 a73d f756 b3bd 7e2f 6c3d
00000350: 50c1 91be c1d1 04be 6ec1 cabd 9b9b eebd
00000360: e024 16bd 2323 0b3d 679f a8bc 9d22 133d
00000370: 60c8 e53d bba8 b73b 7566 2d3d f2dc 59bb
00000380: f539 27bc 3fc6 073d dfa4 943e b0cd 523e
00000390: 9248 383d 5252 4fbd d961 683d 456a 1b3d
000003a0: 161d 753d be6d a4bc 4a29 9f3c 1152 43be
000003b0: 35ed e1bc 3d0b b33b 95ab 8b3d c6fa 983d
000003c0: 6d47 c3bd 6b53 c23b d098 e43d 3015 92bd
000003d0: 9aa1 62bc f327 fabd 76dd fa3d 56a4 a73d
000003e0: 04a7 c93d 65bb b83b ed13 ae3d 3449 51be
000003f0: 25c9 2fbe e691 4e3c 8a35 d1bd 87ab 03be
0.18564652 0.13280727 -0.01863316 -0.10159264 0.06966644 0.044864822 0.12809928 0.16060644
0.056278937 0.056062628 0.010854255 0.0006191359 0.0782632 -0.10681565 0.021569626 0.02622318
-0.051744204 0.1031845 -0.019875549 0.22275867 0.083722435 -0.09190273 -0.12933826 0.039860263
0.1307975 0.019795878 0.031174108 -0.05296347 0.068007 -0.18223445 -0.12611254 0.070603184
0.06281295 0.025821328 0.059353 0.15167318 0.13523172 0.0784666 -0.012185772 -0.07210796
-0.25820008 0.09956746 -0.024933571 -0.13056765 -0.1718042 -0.017964456 0.024084453 -0.057008862
0.21694854 -0.04956151 0.042121172 0.103677 -0.078379676 0.051736556 0.060700893 0.014989224
-0.07124747 -0.018745685 -0.16885857 -0.019071858 0.10831706 0.06458333 0.018699888 0.101505354
0.02286648 -0.11010377 -0.0586095 -0.07799032 0.13276583 0.053377625 0.021116374 -0.3439891
0.04018478 0.1777117 -0.098846585 0.06897349 0.021593437 0.18239495 0.010803744 -0.010159383
-0.15428413 0.03586402 -0.05363092 0.013333517 -0.0002598339 -0.077810764 0.04060128 -0.06380149
-0.03606054 0.11059045 0.15036622 -0.05809501 -0.062226005 -0.11138714 -0.1024909 0.052712508
0.10326228 0.10596122 -0.11962974 -0.065643854 -0.043442104 -0.027666464 0.05850219 0.029388418
0.09893523 0.13914146 -0.056294158 0.08103654 0.04548807 -0.16030738 0.019796062 -0.036533542
-0.10015073 -0.026960809 -0.04966652 -0.04484751 0.025138272 0.15542953 0.026587969 0.018785456
-0.04219284 0.11652483 0.0808014 0.07315423 -0.025879377 -0.09706748 -0.03226634 0.041282214
-0.089042135 0.06515317 -0.11871968 0.09276773 0.010570439 0.08961806 0.010850357 -0.073958494
0.017309573 0.1504634 0.09293044 -0.026340773 0.097310446 0.13915862 0.17163353 -0.0060728253
0.010058187 0.18678735 0.013424608 0.034372177 0.062383644 0.16904224 0.12361438 -0.054806713
0.1363389 -0.004317212 0.035831895 -0.048358463 -0.06111496 0.029200818 -0.11352016 -0.061018933
-0.1057378 0.14908998 -0.015020138 -0.00087210315 -0.39019042 -0.040869564 -0.13241878 0.025625953
-0.11803683 -0.05690856 0.06567452 -0.049919236 0.026879674 0.21675108 -0.1406783 -0.061132688
-0.10857073 -0.05193638 -0.12257727 0.038900528 -0.101549394 0.24163492 -0.095152415 0.04875261
-0.0062079006 -0.02986386 -0.11829433 0.010262097 -0.056411978 0.0041832873 -0.08411284 0.1163589
0.17073014 0.052057218 -0.15524751 -0.24071676 0.0013617356 0.03800264 -0.0165732 -0.03770068
0.035041478 0.16495186 0.055234957 -0.086412825 0.08515057 0.13296382 -0.06483752 -0.06976175
0.17004696 0.08201873 -0.087568216 0.05766248 -0.28467798 -0.1297064 -0.09900175 -0.11650773
-0.03665626 0.033969056 -0.020583821 0.03592168 0.11219859 0.005604831 0.04233404 -0.0033243266
-0.010206689 0.033148047 0.29032037 0.20586276 0.044991083 -0.050615616 0.05673394 0.037943143
0.05984219 -0.02007186 0.019428868 -0.19074275 -0.02757893 0.005463986 0.06819836 0.07469706
-0.09535108 0.0059303544 0.11161959 -0.071329474 -0.013832474 -0.12214651 0.122492716 0.081856415
0.09846309 0.0056375735 0.08499894 -0.20438081 -0.17166574 0.012608027 -0.1021529 -0.12858401

base.mlp.fc1.0.bias f4 [64]
00000000: 3b8e ec37 1b0c c73c c88b 673b 39bf c83b
00000010: 7d7c eebb 9ff2 623d b2ed 853c f519 96bc
00000020: 0fc8 613c 0060 01bc 457f c3bd f12a 363c
00000030: 244f 49bb 70e4 963d 63c0 e73c 512e bf3c
00000040: bbf2 23bd 82ef f5bc c137 b53c 5717 e13b
00000050: 9703 87bc 2349 69bc 5e71 bdbc 4366 24bb
00000060: 4efb c33b 31a2 bbbc 3a7d 6d3c 370e 7d3c
00000070: ddec cabc fef3 b8bc 549c 4dbd f3f4 09bd
00000080: 9687 a13c fad3 213d fd0f 483c c35e 283c
00000090: e461 a43b 5371 5c3d b9b1 8b3c b540 7f3c
000000a0: bbee 263d 2cb7 953c cf9d adbc 1c30 59bc
000000b0: 6801 b23c 9952 383b df76 bcbc 1a12 6c3c
000000c0: 0e24 11bc bd68 59bb ac6a f53c 0752 87bc
000000d0: 3bcc 923c caf6 8abc 13f8 f5bc a580 413c
000000e0: ae35 cb3c 2ca8 053c 77f1 bdbc f609 a03c
000000f0: e207 8c3c 7bf6 073d 43eb 503c 8f9f a5bc
2.8199624e-05 0.024297765 0.003533112 0.006126311 -0.0072780238 0.055407163 0.016348694 -0.018322924
0.013780608 -0.007896423 -0.09545759 0.0111186365 -0.0030717338 0.0736779 0.02828998 0.023337515
-0.040026408 -0.030021433 0.022121312 0.0068692374 -0.016481204 -0.014238629 -0.023125347 -0.0025085367
0.0059808856 -0.022904487 0.014495188 0.015445284 -0.024771148 -0.022577282 -0.050197914 -0.033680867
0.019717973 0.039508797 0.012210843 0.010276499 0.0050165523 0.053819012 0.017052518 0.015579392
0.040755015 0.01827582 -0.021193413 -0.013256099 0.021729186 0.0028125404 -0.0230059 0.014408613
-0.008858694 -0.0033174 0.029958092 -0.016518606 0.01791965 -0.016963381 -0.030025518 0.011810456
0.02480587 0.008157771 -0.023186428 0.019536 0.017093603 0.033194046 0.012751403 -0.020217685

base.mlp.fc1.2.weight f4 [64]
00000000: 4853 743f b9fa 833f 3a82 6c3f 5faf 963f
00000010: 0537 793f ee6b 923f 2b73 7e3f fe5d 763f
00000020: 5cc9 7b3f f305 7c3f 3195 953f 5f12 7e3f
00000030: 5d80 763f f538 7c3f 5451 943f c475 893f
00000040: 630c 7e3f 0fc5 623f 2844 813f 30d2 793f
00000050: 0439 793f d847 793f cfbc 7e3f cacb 743f
00000060: 9d4a 763f 6577 883f 10df 843f 5ee4 7d3f
00000070: ace0 713f 09b8 763f 0ed7 703f 76d5 833f
00000080: f152 793f 4885 a13f 1a51 703f e4c3 753f
00000090: 93e9 8b3f c754 883f 9c3e 7e3f 3120 7d3f
000000a0: 2d6d 853f 5d56 803f e477 753f 38ea 6e3f
000000b0: 94e1 743f c689 783f 3eab 713f a0e4 823f
000000c0: 89b9 793f 51e2 753f f4ad 823f a58a 803f
000000d0: 2fb3 823f c3c0 653f 61f8 803f 4753 833f
000000e0: f1ba 7a3f d9d7 6c3f 9c90 803f 51ef 883f
000000f0: b9da 6f3f d0b1 753f 10de 813f 1148 793f
0.9543958 1.031089 0.9238621 1.1772269 0.9734958 1.1439188 0.9939448 0.9623717
0.98354125 0.9844658 1.1686155 0.9924678 0.96289617 0.9852441 1.1587319 1.0739064
0.9923765 0.8858194 1.0098925 0.97586346 0.97352624 0.9737525 0.9950685 0.9562346
0.962076 1.0661436 1.0380573 0.99176586 0.9448345 0.96374565 0.9407815 1.0299518
0.97392184 1.2618799 0.9387375 0.9600203 1.0930656 1.0650872 0.99314284 0.98877245
1.0423943 1.0026356 0.95886064 0.9332614 0.95656705 0.97085226 0.9440192 1.0226021
0.9754873 0.96048456 1.0209336 1.0042311 1.0210932 0.89747256 1.0075799 1.0259789
0.979415 0.9251686 1.0044131 1.0698034 0.9369312 0.95974445 1.0145893 0.9737559

base.mlp.fc1.2.bias f4 [64]
00000000: 0946 3f3d d19c d3bb e0ff b4bb 8b30 3c3a
00000010: dacb 433c 0db7 e93c 0e74 463c 9227 cb3c
00000020: ca6c 023c 4994 b83c c803 8f3b e0b7 de3b
00000030: a180 49bd c3a6 a93b 6106 953c 5ff4 8c3c
00000040: 5650 0dbd 20a1 dbbc 733e 8d3a 5d45 db3c
00000050: d78d 64bc 386e 66bc 1777 6bbc c374 c0bb
00000060: fac9 bebb f25e 99bd 62d0 23bc ec8f cd3c
00000070: cfbc 00bd 43b5 46bd 3117 e83b a29e 73bd
00000080: a2b7 bcbc 3384 83bc d2fe 013d 2ed7 863b
00000090: a1e7 223c 7d52 ad39 0afe 973c cb9e 873c
000000a0: 3e3d d93c 78a7 2ebc 65e7 e63b d021 42bd
000000b0: 5464 93bb cc7e e43b 3243 18bc c6fe debb
000000c0: 108d a5ba 6d65 0a3d 0e8b ca3c 6c7a a0bc
000000d0: 9bba b23c 8a4d 74bb e130 9a3b 30a9 123c
000000e0: 8ae6 313c c625 a4bb b318 92bc b04c 43bd
000000f0: 762f 69bc e7aa be3b 1382 943c 4481 2dbc
0.04669765 -0.006457903 -0.0055236667 0.00071788643 0.0119504575 0.028529668 0.0121126305 0.024799142
0.007960508 0.022531645 0.0043644644 0.006796822 -0.049194936 0.0051773502 0.018191518 0.017206369
-0.034500442 -0.026810229 0.0010776058 0.026766473 -0.013949833 -0.014064364 -0.014371655 -0.005873294
-0.0058224173 -0.074888125 -0.009998413 0.025093041 -0.031430062 -0.04851271 0.0070828428 -0.059477456
-0.023036782 -0.016054248 0.031737156 0.004115007 0.00994292 0.0003305859 0.018553752 0.01655521
0.02651846 -0.010660045 0.0070466273 -0.047395527 -0.004498044 0.006973123 -0.009293364 -0.0068052737
-0.0012630541 0.033788133 0.02472451 -0.019589625 0.021817496 -0.0037277662 0.004705534 0.00895147
0.010858187 -0.0050093858 -0.017834043 -0.047680557 -0.014232507 0.005818713 0.01812843 -0.010589901

base.mlp.fc_h.0.weight f4 [64, 64]
00000000: 5c52 82bd ec00 19be 2ce9 353d 3b71 273e
00000010: 6239 253e 8957 7bbb 978c 40be f484 67bd
00000020: aaf8 70be 4277 a2bd a88c 513c ec48 2f3d
00000030: 41c4 c43e f23a 2d3e 04ed bd3d d5af 193e
00000040: 3e0f 4d3e d477 8fbd d88c 273e e64b 53be
00000050: db65 18be bb4d 403e c80b 3f3d 4528 8f3d
00000060: 700d 3f3d d8a5 243e b10f 6c3e 1a61 823e
00000070: bfc1 cabd 505f d03d 5a11 13be 62ad d5be
00000080: 7d98 443e 29e2 14be c60e 1ebd 3ca1 c23d
00000090: 113a fdbd 4aba 63bd a6b5 44be 0e1c c2bd
000000a0: eb11 fe3d c67d e33c a674 dfbd 6f66 2dbe
000000b0: 4ff8 e8bd a117 38be 567f 8a3e 9539 bebc
000000c0: 23f6 57be 8ac4 c33d 858b 81be 382a 573c
000000d0: 609d b3bd 93ab a2be ff37 683e 9b1d d13e
000000e0: 7bb4 7e3e 7423 553e e3cf be3d cda6 a2bd
000000f0: 7bb2 533d abae 9abe 301c 92be 6731 13be
00000100: 1088 babe 6188 ba3e f0ec e0bd 5c8e d83e
00000110: 38e9 683e e0d8 503e 27cb 7f3e f428 e03d
00000120: bc46 54be fbb3 adbd c560 96bd ee56 18be
00000130: ff12 a03d 055e 923e 1b95 92bd 5853 32bc
00000140: dd37 893d 33cc 1c3e 7b78 9ebe 82d2 cbbd
00000150: 361f b2bd 5601 0ebe 4aaf afbc 47ec af3d
00000160: 5bd2 e73d b1ee 923d 5ee5 713e 79b7 37be
00000170: 8cd4 82be f821 90bd 6251 aa3d 9991 b1bb
00000180: fe97 5d3a f2fa 6dbd 2582 973e 3a54 ae3d
00000190: 7f0d bc3d 8a85 82be d3da 763d 97d6 d7bd
000001a0: 206b dbbd 6da8 babd 84d0 cfbd e3a0 edbc
000001b0: 903c 20bd f901 bc3d 7648 cf3c 5901 923e
000001c0: 3959 abbd b7f3 ab3d 5fcc 963e 71fe ebbe
000001d0: 9d6d 283e bc05 36bd b444 f23d 636f 83be
000001e0: 1ce5 f73d 68da 373e 6d26 6abe e16e 64bd
000001f0: 9431 c1bb 0732 0a3d 68bf 093e cdea e4bc
00000200: 81fb 82bd d63b c13d 3de1 4ebe 739e c4bb
00000210: 0146 353c 2f6c 4e3e 732e 4c3d 8d73 27be
00000220: faa9 663e b3d1 883e 0bd5 c63e c1e5 903e
00000230: fe04 9dbd ad9d 273e 13b8 35be baac 4d3d
00000240: ed08 0fbe 5b98 a3be b53b a2be aa8c 723c
00000250: e589 8dbd e0b1 c83b e418 91bd 3821 b9bd
00000260: 99da 903c e21e 89be 6c34 843d cec8 c7bd
00000270: 428e 9abd 7c71 93be 8644 63bd 83e3 c63d
00000280: 78a3 393e 64b7 823d b124 0d3e 2092 e2bd
00000290: 71c6 48be e311 c93e fb89 b0be 435a 323e
000002a0: ef1b e93c dd76 8abe 021a a43d 4a33 febb
000002b0: a281 8a3e 2685 ecbd 6d14 f7bd a3c3 193e
000002c0: 6aa2 873d a7c2 95be 24fe edbc d73a 3dbc
000002d0: 55ff b13d 5681 03bd 459e f2bb 5599 8f3e
000002e0: 5db3 513e f879 5a3e 88c9 30be 2b92 a3bd
000002f0: 55e1 fa3d 205d 8f3d 175c 95be dd3c bbbd
00000300: c2a7 c13e 4fb6 3bbe 42b3 abbd d380 ca3b
00000310: 556a 333e cff8 48be 0bd9 5a3b 87c3 53bd
00000320: bb59 ddbd b31c a4bd ab13 103e 1a1a 03be
00000330: 852a 283e c461 c23c 7bb6 17bc 8370 ab3e
00000340: 6243 423d 2bc1 a8bd 8d7e 40be dc34 fcbc
00000350: 4a8d f0be 0272 b6be 10b0 5ebe b07d 493e
00000360: 82ad 16be bc8e 31bd a760 cabb fb51 5dbe
00000370: 4648 873c 7da3 6ebe abf4 ffbd 8012 23bd
00000380: e18f efbe 3660 67bd 9a54 ec3d 0db2 67be
00000390: c276 6e3e 9efd 12be 08a6 0f3e 3ae4 11bd
000003a0: f592 d03d 5423 273d 3209 d53d f20a 0dbe
000003b0: aa1d 6d3e 8f26 003e 62c6 d1bd 172a 463c
000003c0: 4eff 843e a205 c23e a19e 49be 7ef4 e1bc
000003d0: b1f3 883d 4222 e6bc c57c 46be 901c a63d
000003e0: 0585 38bd 3879 5e3d 48dd a43b e263 a33c
000003f0: 796e 5dbd 235d fdbc 1e8e 98be 4431 283e
-0.06363365 -0.14941758 0.044411823 0.16351788 0.16135171 -0.0038351736 -0.18803631 -0.05652328
-0.23532358 -0.07932903 0.012789883 0.042794153 0.3843098 0.16917017 0.09273723 0.15008481
0.20025346 -0.07005277 0.16362321 -0.20634422 -0.14882605 0.18779652 0.046642095 0.06990103
0.046643674 0.1607889 0.23052861 0.25464708 -0.099002354 0.101744294 -0.14362088 -0.41733843
0.19198795 -0.14539398 -0.038588308 0.09503409 -0.12364591 -0.05559758 -0.19209918 -0.09478007
0.12405761 0.027769934 -0.10910921 -0.16933607 -0.11375486 -0.17977764 0.27050275 -0.023220817
-0.21089987 0.09558971 -0.25301757 0.013132624 -0.08770251 -0.31771526 0.22677611 0.408429
0.24873535 0.20814306 0.09316995 -0.07941971 0.051683884 -0.30211386 -0.2853713 -0.14374314
-0.36431932 0.36432174 -0.10982692 0.42296112 0.22745216 0.20395231 0.2497984 0.10945311
-0.20730108 -0.08481594 -0.07342676 -0.14876911 0.07816123 0.28587356 -0.07157346 -0.0108841285
0.06700108 0.15312271 -0.30951294 -0.099522606 -0.08697359 -0.13867697 -0.021445889 0.08589988
0.11319419 0.07174433 0.23622653 -0.17941083 -0.25552785 -0.07037729 0.08316304 -0.005418968
0.00084531296 -0.05810065 0.2959148 0.08512159 0.09182262 -0.25492507 0.06026728 -0.10538977
-0.10713792 -0.09114156 -0.10147193 -0.02900738 -0.039120257 0.09180064 0.025303107 0.28516653
-0.08366627 0.08396094 0.29452798 -0.4609256 0.16448064 -0.044439062 0.1182951 -0.2567092
0.12104246 0.17954409 -0.22866221 -0.055769805 -0.0058958028 0.033739116 0.13451922 -0.027943993
-0.06395627 0.09435241 -0.20203109 -0.006000334 0.0110640535 0.20158456 0.049848985 -0.16352673
0.22525778 0.26722488 0.38834414 0.28300288 -0.07666968 0.16368742 -0.17746 0.050213553
-0.13968249 -0.31952175 -0.31686178 0.014804045 -0.06911067 0.00612472 -0.07084826 -0.09039539
0.01768236 -0.26781374 0.06455311 -0.09755097 -0.07546665 -0.2879752 -0.05548527 0.09711363
0.18128765 0.06382635 0.13783528 -0.110630274 -0.1960695 0.3927146 -0.3448027 0.17417245
0.028455703 -0.2704381 0.08012773 -0.007757579 0.27052027 -0.115488335 -0.12064443 0.15016036
0.06622775 -0.2925007 -0.029051848 -0.011549673 0.08691279 -0.032105766 -0.007404121 0.2804667
0.20478578 0.2133559 -0.17264378 -0.07986864 0.1225001 0.07000184 -0.2917182 -0.09142468
0.37823302 -0.18331264 -0.083838 0.006179908 0.17521031 -0.19626163 0.0033393528 -0.05170014
-0.1080813 -0.080132864 0.14070003 -0.12802926 0.1642247 0.023728259 -0.009259815 0.33484277
0.047427543 -0.08239969 -0.18798275 -0.030786924 -0.46982795 -0.35633856 -0.2174685 0.19676852
-0.14714625 -0.043349013 -0.0061760726 -0.21613304 0.016513955 -0.23304553 -0.124978386 -0.039812565
-0.46789458 -0.05648824 0.11539574 -0.22626515 0.2328749 -0.1435456 0.1402818 -0.035618044
0.1018428 0.040805176 0.104021445 -0.13773707 0.23155847 0.12514709 -0.10242917 0.012094996
0.25976032 0.37894922 -0.19689418 -0.027582403 0.066871054 -0.028092507 -0.19383533 0.081109166
-0.045048732 0.054314822 0.0050312616 0.019945089 -0.054060433 -0.0309282 -0.29795927 0.16425043

base.mlp.fc_h.0.bias f4 [64]
00000000: 0000 0000 0000 0000 0000 0000 0000 0000
00000010: 0000 0000 0000 0000 0000 0000 0000 0000
00000020: 0000 0000 0000 0000 0000 0000 0000 0000
00000030: 0000 0000 0000 0000 0000 0000 0000 0000
00000040: 0000 0000 0000 0000 0000 0000 0000 0000
00000050: 0000 0000 0000 0000 0000 0000 0000 0000
00000060: 0000 0000 0000 0000 0000 0000 0000 0000
00000070: 0000 0000 0000 0000 0000 0000 0000 0000
00000080: 0000 0000 0000 0000 0000 0000 0000 0000
00000090: 0000 0000 0000 0000 0000 0000 0000 0000
000000a0: 0000 0000 0000 0000 0000 0000 0000 0000
000000b0: 0000 0000 0000 0000 0000 0000 0000 0000
000000c0: 0000 0000 0000 0000 0000 0000 0000 0000
000000d0: 0000 0000 0000 0000 0000 0000 0000 0000
000000e0: 0000 0000 0000 0000 0000 0000 0000 0000
000000f0: 0000 0000 0000 0000 0000 0000 0000 0000
0.0 0.0 0.0 0.0 0.0 0.0 0.0 0.0
0.0 0.0 0.0 0.0 0.0 0.0 0.0 0.0
0.0 0.0 0.0 0.0 0.0 0.0 0.0 0.0
0.0 0.0 0.0 0.0 0.0 0.0 0.0 0.0
0.0 0.0 0.0 0.0 0.0 0.0 0.0 0.0
0.0 0.0 0.0 0.0 0.0 0.0 0.0 0.0
0.0 0.0 0.0 0.0 0.0 0.0 0.0 0.0
0.0 0.0 0.0 0.0 0.0 0.0 0.0 0.0

base.mlp.fc_h.2.weight f4 [64]
00000000: 0000 803f 0000 803f 0000 803f 0000 803f
00000010: 0000 803f 0000 803f 0000 803f 0000 803f
00000020: 0000 803f 0000 803f 0000 803f 0000 803f
00000030: 0000 803f 0000 803f 0000 803f 0000 803f
00000040: 0000 803f 0000 803f 0000 803f 0000 803f
00000050: 0000 803f 0000 803f 0000 803f 0000 803f
00000060: 0000 803f 0000 803f 0000 803f 0000 803f
00000070: 0000 803f 0000 803f 0000 803f 0000 803f
00000080: 0000 803f 0000 803f 0000 803f 0000 803f
00000090: 0000 803f 0000 803f 0000 803f 0000 803f
000000a0: 0000 803f 0000 803f 0000 803f 0000 803f
000000b0: 0000 803f 0000 803f 0000 803f 0000 803f
000000c0: 0000 803f 0000 803f 0000 803f 0000 803f
000000d0: 0000 803f 0000 803f 0000 803f 0000 803f
000000e0: 0000 803f 0000 803f 0000 803f 0000 803f
000000f0: 0000 803f 0000 803f 0000 803f 0000 803f
1.0 1.0 1.0 1.0 1.0 1.0 1.0 1.0
1.0 1.0 1.0 1.0 1.0 1.0 1.0 1.0
1.0 1.0 1.0 1.0 1.0 1.0 1.0 1.0
1.0 1.0 1.0 1.0 1.0 1.0 1.0 1.0
1.0 1.0 1.0 1.0 1.0 1.0 1.0 1.0
1.0 1.0 1.0 1.0 1.0 1.0 1.0 1.0
1.0 1.0 1.0 1.0 1.0 1.0 1.0 1.0
1.0 1.0 1.0 1.0 1.0 1.0 1.0 1.0

base.mlp.fc_h.2.bias f4 [64]
00000000: 0000 0000 0000 0000 0000 0000 0000 0000
00000010: 0000 0000 0000 0000 0000 0000 0000 0000
00000020: 0000 0000 0000 0000 0000 0000 0000 0000
00000030: 0000 0000 0000 0000 0000 0000 0000 0000
00000040: 0000 0000 0000 0000 0000 0000 0000 0000
00000050: 0000 0000 0000 0000 0000 0000 0000 0000
00000060: 0000 0000 0000 0000 0000 0000 0000 0000
00000070: 0000 0000 0000 0000 0000 0000 0000 0000
00000080: 0000 0000 0000 0000 0000 0000 0000 0000
00000090: 0000 0000 0000 0000 0000 0000 0000 0000
000000a0: 0000 0000 0000 0000 0000 0000 0000 0000
000000b0: 0000 0000 0000 0000 0000 0000 0000 0000
000000c0: 0000 0000 0000 0000 0000 0000 0000 0000
000000d0: 0000 0000 0000 0000 0000 0000 0000 0000
000000e0: 0000 0000 0000 0000 0000 0000 0000 0000
000000f0: 0000 0000 0000 0000 0000 0000 0000 0000
0.0 0.0 0.0 0.0 0.0 0.0 0.0 0.0
0.0 0.0 0.0 0.0 0.0 0.0 0.0 0.0
0.0 0.0 0.0 0.0 0.0 0.0 0.0 0.0
0.0 0.0 0.0 0.0 0.0 0.0 0.0 0.0
0.0 0.0 0.0 0.0 0.0 0.0 0.0 0.0
0.0 0.0 0.0 0.0 0.0 0.0 0.0 0.0
0.0 0.0 0.0 0.0 0.0 0.0 0.0 0.0
0.0 0.0 0.0 0.0 0.0 0.0 0.0 0.0

base.mlp.fc2.0.0.weight f4 [64, 64]
00000000: 1bc6 703d 5168 8cbd 0216 3abc 7067 3a3e
00000010: 014d 4e3e 0f1e 1bbe 3a01 97be 54e4 11bd
00000020: 71bd 95be b252 c1bd 5a12 873d fa47 323d
00000030: 9d66 d13e 8fb6 683e ee7d 8f3e 967b 6f3d
00000040: 95d4 813e 562e a4bd e5de 9c3e daac 79be
00000050: 3e28 e9bd 1d2f 583e 8e63 603d 8a3a cb3d
00000060: ae1c 123e b38c 353e 0833 2f3e 0839 603e
00000070: 72c0 913c 53ad 303d 7945 28be fbdb dabe
00000080: be46 6b3e f505 f8bb 6362 18bc 1b55 683e
00000090: 4113 14be 75a2 95bd d059 7ebe 12ba 1ebe
000000a0: 67f7 cc3c ab45 003d fab5 06be 24b0 edbd
000000b0: fab6 61be f180 43be 106e 6e3e a1ee 8f3c
000000c0: 0bf6 6abe e18c fc3d 053a 83be 95fc 3d3e
000000d0: 33c4 51be 4fe7 9cbe a9dd b53e d38c e83e
000000e0: 2746 273e bd57 d13d 6840 493e abd5 92bd
000000f0: 7109 00bc 1671 95be 791b d6be 1f49 aabd
00000100: 89f4 b6be 46c9 813e ea52 dfbd e2e0 d83e
00000110: 23c5 523e 169a 963e 29c6 653e fe27 aa3d
00000120: 8b22 93be 239f dd3c db23 32be ec59 48be
00000130: da52 7c3c e138 a93e 9d72 c53c 0afa 403d
00000140: 5677 b13c bb5b 103e 1210 b1be ab08 61bd
00000150: 667d 6fbc b9cc f7bd 4f64 ccbd 4fd3 6b3d
00000160: d4c6 ea3d 87e3 833d d5d6 913e 1ed6 10be
00000170: e767 82be a0d6 a03b fc26 be3d db1c 73bd
00000180: 1747 633d 2de2 70be ac3b a73e 8872 7d3d
00000190: fed0 f03d fa25 77be f38a c03d 1c1d edbd
000001a0: a290 5b3c 90a3 34be 1675 9abd 49a1 aebc
000001b0: d3a4 e5bc 7666 8c3d 897c 2a3d 2141 793e
000001c0: db71 2abd 780e 943d 5740 9b3e 1b38 f1be
000001d0: b44f 7c3e 13b6 b4bb 8607 103d a269 9fbe
000001e0: 1b98 3c3e fbae 0c3e 7a76 80be efae ccbd
000001f0: 4b45 933d 9df7 183b 718b 5d3e bb85 96bd
00000200: 0883 d73d 9799 12be ccd7 cc3d f058 f13e
00000210: e1f7 29be 8762 fc3e cc2d 8e3e 352d cebe
00000220: 22e0 dc3e eced a63e edc7 d53e cbcb e23e
00000230: 0a8c 2bbe 5438 9ebd ff75 c8be 26cb 3d3e
00000240: 4d19 dabe 7fc5 b9be 3090 16bf 050a 9abc
00000250: 64ba 99be 2cd1 fdbd 0332 b5bd 0986 29be
00000260: 953c 6c3e e39d e9be 775c 873e 37eb febc
00000270: 2ee6 72be 7909 16bf 623c 96bc d821 8f3e
00000280: 404c 643e 2028 513e c9dc 91bd b3be b9be
00000290: 43e5 34be 1544 513f 3e7b 10bf cdb6 063e
000002a0: 38f0 28be 49fe cdbe 49e2 943e ad5e 2abe
000002b0: 0f39 d53d ef0b fb3c e746 9dbe 11e6 9bbc
000002c0: 708c be3d 9cb7 f0be 624a 533e ce1d 3bbc
000002d0: e61b 9b3d 37fa 613d 4923 89be c65d 083e
000002e0: 4b1f b03d 7e97 283e c9f2 a9be aff5 75be
000002f0: 88ca 01be 21ba d4bd aba0 69be 9789 b83d
00000300: 656c b83e 14ce 89be 447d 66bd 3555 313c
00000310: 4ece 063e 1742 66be 1b9d 043d 954a d1bd
00000320: f34c 49bd b493 89bd da60 083e 8c34 2ebe
00000330: 8207 193e a891 103d d92d 21bd 996b a13e
00000340: 6daa 0a3c bde8 83bd fc01 8bbe a173 d63c
00000350: 1bef e7be 6d16 cebe d2aa 1bbe d540 773e
00000360: 9afb 32be a894 56bd 17c7 f3ba 49c0 66be
00000370: 32b3 bbb8 034a 51be 30cd e8bd 0c94 91bd
00000380: 902d febe e3b6 a1bd 99be 263d 3d39 8cbe
00000390: 4296 bf3e 7715 0fbe 7561 e63d 21aa fc3c
000003a0: aac9 083e e155 0e3b 67f2 a13d a0e1 c9bd
000003b0: 0fed 903e ac07 ce3d 9821 48be 6124 633b
000003c0: 86e4 893e 27ad c03e 63b9 7abe 47bf f3bc
000003d0: 5b1d 4f3d ee3b e7bd 2b1f 76be 4a9b 0fbc
000003e0: 77f9 35be a32a 063e 30f8 16bd f8dc cb3b
000003f0: 5ecf 2d3d f983 85bd 0a75 8ebe 4946 0e3e
0.058782678 -0.06855834 -0.011357786 0.18203521 0.20146562 -0.15148185 -0.29493123 -0.03561814
-0.29246095 -0.09439601 0.06595297 0.043525673 0.408986 0.2272589 0.28025764 0.05846747
0.253575 -0.080166504 0.30638805 -0.24382344 -0.11384629 0.21111722 0.054782443 0.09923275
0.14268753 0.17729454 0.1710931 0.21896756 0.01779196 0.043134045 -0.16432752 -0.42745957
0.22976205 -0.0075690695 -0.009300801 0.22688715 -0.1446047 -0.07306377 -0.24838948 -0.15500668
0.025020314 0.03131644 -0.13155356 -0.11605862 -0.22042456 -0.19092156 0.23284173 0.017569842
-0.2294542 0.12331558 -0.25630203 0.18553384 -0.20485 -0.30645224 0.35520676 0.4541994
0.16335355 0.10221813 0.19653475 -0.0716966 -0.007814751 -0.2918784 -0.41817835 -0.08314728
-0.3573344 0.25348872 -0.109044865 0.42359072 0.20583014 0.29414433 0.22438873 0.08308409
-0.28737292 0.027053421 -0.1739649 -0.19565552 0.015400613 0.33051208 0.024102503 0.047113456
0.02166335 0.14097492 -0.34582573 -0.054939907 -0.0146173 -0.120995946 -0.0998007 0.057574566
0.11463705 0.06439882 0.28484216 -0.14144179 -0.25469896 0.004908398 0.092847794 -0.05935369
0.05548772 -0.23523779 0.32662714 0.061876804 0.11758612 -0.2413558 0.094015025 -0.11577818
0.013401182 -0.17640519 -0.075418636 -0.021317141 -0.028032696 0.068554804 0.041622672 0.24341251
-0.041612487 0.07229322 0.30322525 -0.47113118 0.2463978 -0.005514869 0.035163425 -0.3113528
0.18417399 0.13738625 -0.2509039 -0.099943034 0.07190951 0.0023340948 0.21635224 -0.07349726
0.10523039 -0.14316402 0.100020975 0.47138166 -0.16598465 0.4929392 0.27769315 -0.40268865
0.4313975 0.32603395 0.41754094 0.44296107 -0.1675264 -0.077255875 -0.39152524 0.18534526
-0.42597428 -0.3628349 -0.5881376 -0.018803606 -0.30025017 -0.12393412 -0.088474296 -0.16555037
0.23069985 -0.4562827 0.26437733 -0.031118019 -0.23720619 -0.58608204 -0.01833934 0.27955508
0.22294712 0.20425463 -0.071221896 -0.36278304 -0.17665581 0.8174451 -0.5643805 0.1315567
-0.16497886 -0.40233067 0.29078892 -0.16637678 0.10411274 0.030645339 -0.30718157 -0.019030603
0.0930413 -0.47015083 0.20633844 -0.01142068 0.075736806 0.055170264 -0.26784733 0.13317022
0.08599719 0.1646404 -0.33193043 -0.24019502 -0.12674916 -0.10387064 -0.22815196 0.09010618
0.36020198 -0.26915038 -0.056271806 0.010823538 0.13164636 -0.22486149 0.03237639 -0.102193035
-0.04914565 -0.06717625 0.13318196 -0.17012233 0.1494427 0.03529516 -0.039350364 0.31527403
0.008463484 -0.06440876 -0.2714995 0.026178183 -0.4529961 -0.40251485 -0.15201882 0.24145825
-0.17478791 -0.052387863 -0.0018598762 -0.22534288 -8.9502326e-05 -0.2043839 -0.113672614 -0.07108316
-0.49644136 -0.07896211 0.04070911 -0.2738742 0.37419325 -0.13973032 0.11249057 0.030842843
0.13358179 0.0021718668 0.07907563 -0.09857488 0.2830586 0.10060057 -0.19544065 0.0034659135
0.26932162 0.37632105 -0.24484782 -0.029754294 0.050565105 -0.112907276 -0.24035327 -0.008765051
-0.17770945 0.13102202 -0.036857784 0.00622141 0.04243409 -0.065193124 -0.2782367 0.13893999

base.mlp.fc2.0.0.bias f4 [64]
00000000: a57b fabb e015 ab3c 09ce 443e 92e0 433d
00000010: 5a79 a63c 9fdd 1e3d 7070 623c 66c3 493c
00000020: ea41 f739 9125 61bc 4b1d 4bbd b215 67bd
00000030: 1cbd 933d 17fa 253c f5c8 8bba cece 4e3c
00000040: 9135 303b 20ee 24bd c205 2f3e ab14 0bbd
00000050: 4f96 0fbc 196a 12bd 43ff 883c a576 60bc
00000060: 7190 e0bc 9e36 0aba e7dd f4bc ac7f 43bc
00000070: b96a c73d 6180 ccbb 545d b43c cceb 24bc
00000080: c318 d73b 14a9 203b 824f 853c ed37 053d
00000090: 480b 083c 4138 c2bc 1210 a73b 7463 9abb
000000a0: 32a6 21bc 0bc5 5bba 0d62 6f3d 0066 ef3c
000000b0: 8cb5 c73c 07f3 393b 45dd 11bd abc6 0a3c
000000c0: 0c6a 31bc eed5 1cbd 21fc 573d 0e83 183e
000000d0: 7e2e 1b3d 73f4 3f3d e36a 583e 6086 3d3d
000000e0: 601e 90bb 29c6 063b 6c2c 9c3c 1da0 403c
000000f0: 1b3f e0bb 60c6 023d ab82 7a3e b5e9 613c
-0.007644134 0.020884454 0.19219221 0.04782159 0.020321537 0.038785573 0.0138207525 0.012314653
0.0004716062 -0.013741867 -0.049588483 -0.056417175 0.07213804 0.010130427 -0.0010664748 0.012622548
0.0026887397 -0.040266156 0.1709204 -0.033955257 -0.008763864 -0.035745714 0.01672328 -0.013700162
-0.027412625 -0.0005272421 -0.029890968 -0.011932295 0.097371526 -0.00624089 0.022017159 -0.010065984
0.006564231 0.002451484 0.016273264 0.032524038 0.008303471 -0.023708465 0.0050983513 -0.004711563
-0.009866284 -0.00083835487 0.058443118 0.029223442 0.02437856 0.0028373615 -0.03561141 0.008470218
-0.010828506 -0.038289957 0.052730683 0.14893743 0.037886135 0.046863984 0.21134524 0.046270728
-0.004398152 0.002056489 0.01906415 0.011756924 -0.0068434603 0.031927466 0.24463908 0.01378863

base.mlp.fc2.0.2.weight f4 [64]
00000000: efb9 533f a729 6c3f 069f 5f3f 2de4 6b3f
00000010: ac08 543f f3ba 783f 56f4 643f c0ae 6d3f
00000020: f2d8 5b3f 2ff9 623f be72 723f 35c8 6f3f
00000030: 1d74 7b3f 7198 6c3f fd21 653f bcec 6c3f
00000040: 3820 653f 5fa0 6d3f 83fb 0c3f 70dd 5d3f
00000050: 1e11 643f aef4 683f 8696 593f 2aa1 673f
00000060: 4004 6b3f 9335 723f fe4e 6b3f 8854 693f
00000070: 5c2e 2f3f be35 723f d7a2 663f 229e 7b3f
00000080: ab3e 6e3f ef1b 653f 6c9c 663f aa0a 6a3f
00000090: bae8 6d3f 2c09 6a3f 7fa0 723f ed4f 763f
000000a0: 3fa7 703f 07e7 6a3f 1f9d 763f 4d45 733f
000000b0: 2bff 683f 9008 6c3f 03d7 723f 4ced 6f3f
000000c0: cb33 663f 4582 683f 55e9 633f 02fe 613f
000000d0: bd65 6d3f 52f7 6f3f 8b3e b83e 2bc2 743f
000000e0: 9812 5c3f fb96 6c3f 0748 703f ae56 623f
000000f0: 3e1d 513f 3fc5 6f3f 2492 373f 8085 663f
0.8270559 0.92251056 0.87352026 0.92145044 0.8282573 0.9716026 0.8943533 0.9284477
0.8587791 0.88661474 0.9470633 0.93664867 0.9822405 0.9242011 0.89504987 0.9254873
0.89502287 0.9282283 0.55071276 0.8666601 0.8908862 0.9099835 0.84995306 0.9048029
0.9180336 0.94613 0.9191741 0.9114461 0.68430114 0.94613254 0.90092224 0.98288167
0.93064374 0.8949575 0.9008243 0.9142252 0.9293324 0.91420245 0.9477615 0.9621571
0.940052 0.9175877 0.963335 0.9502762 0.91014355 0.92200565 0.9485933 0.9372146
0.8992278 0.90823776 0.8902791 0.8827821 0.92733365 0.93736756 0.35985216 0.95608777
0.8596587 0.9241788 0.93859905 0.8841351 0.81685245 0.9366035 0.7170737 0.90047455

base.mlp.fc2.0.2.bias f4 [64]
00000000: 285d 17bd f544 713c a472 86bd 3cfb c83c
00000010: fcae da3d eb46 473c 2f3e ab3c c484 533c
00000020: abce b03c 0cc1 f6bb 4cf2 20bc 52be 4b3d
00000030: aa10 733c e2b0 9d3c d0e5 aa3c ea31 6e3d
00000040: 7520 16bc e6a1 cc39 668c 8dbe ecb7 af3d
00000050: 10c5 88bc 0eb0 aa3c 8f47 783d a2fb 4fbc
00000060: 00ff 06bc ad48 08bd 3a00 b53c 0a9d 8c3c
00000070: 6a71 33be 33fa 49bc 9b89 c7bc c190 8c3c
00000080: b28f eb3c 40b3 a63c 61ef cb3c 0910 e8bc
00000090: 2378 bc3c 23f4 53bc f670 763c fd81 9ebc
000000a0: 8354 433c 28bb 52bc 673a 8d3c bd62 803c
000000b0: 27a4 c33b ec0a 41bc d1d2 993c 07ab c83c
000000c0: 40fb 803c 1436 1aba ef02 ddbd d4b6 e7bd
000000d0: 4e61 2f3c 3291 8ebb dd74 a2be f62c 0e3d
000000e0: f693 1abb 7a23 93bb 4440 673c 5b53 623c
000000f0: 9f8a ad3d 602d 46bc 8c07 29be 51c5 033d
-0.036954075 0.014725913 -0.06564835 0.02453386 0.10677907 0.012162904 0.020903675 0.012910072
0.021582922 -0.007530337 -0.009823393 0.04974205 0.014835516 0.019249383 0.020861536 0.05815307
-0.009163012 0.00039030536 -0.27646178 0.08580002 -0.01669553 0.020835903 0.06061512 -0.012694271
-0.008239508 -0.033272434 0.022094835 0.017164726 -0.17523733 -0.012327719 -0.024357608 0.017158868
0.028755043 0.020349145 0.024894418 -0.028327959 0.023006504 -0.012936625 0.01504158 -0.019349093
0.011922005 -0.012862004 0.017239762 0.015672082 0.005970496 -0.011782389 0.018777283 0.024495615
0.015744805 -0.0005882692 -0.10791575 -0.113141686 0.010704352 -0.0043508047 -0.31729785 0.034710847
-0.0023586727 -0.004490313 0.014114443 0.013813819 0.084737055 -0.012095779 -0.16506785 0.032170597

v_out.weight f4 [1, 64]
00000000: 7622 87bc d1ec 9cbc 7aed d7bc f120 7bbd
00000010: df0e b2bb 58b3 9dbd 7dd7 f2bd 1f55 84bd
00000020: 7780 dc3b 6623 e0bb 6513 3d3e 89e6 b33c
00000030: bdab cbbd 5b06 0f3d ea5e 59bd 84ee dbbc
00000040: ecdb aabc 2173 5f3d 0008 9cba 508c 9f3b
00000050: 2a71 3b3e 515c 0e3d 5514 fabb f73f 133e
00000060: 8415 db3d 4d4d f03c aed6 d73c f2ed 773c
00000070: e103 a4bb df79 8f3d e21e 92bc f582 5e3d
00000080: 056a f8bd 946a e5bd f3f7 8bbd 3874 78bc
00000090: e8a9 7a3c 7b01 8f3e 9d2b d9bc f057 043e
000000a0: cb5b 113d eb11 073e 187d e5bc fb09 6cbd
000000b0: cf85 3cbd 067c cd3c eb1b 0d3d f0e3 1fbe
000000c0: 9ff5 a83c 90dc 9a3d 3983 a43c 88ae d9bc
000000d0: d2ef cbbc b428 4dbd f413 b73b 6ca3 87bd
000000e0: ad9c 95bb f558 053d 84b0 9dbd 52b8 6dbd
000000f0: 73a4 953c 3b83 1b3d 1fc2 d8bc 0d3d 9abd
-0.016495924 -0.019155892 -0.026358355 -0.061310712 -0.0054339017 -0.07700223 -0.118575074 -0.06461548
0.0067291814 -0.0068401573 0.1846443 0.021960514 -0.09944866 0.03491817 -0.053069033 -0.026847132
-0.02085682 0.054553155 -0.001190424 0.0048690215 0.18304887 0.03475601 -0.0076318183 0.1437987
0.10697463 0.029333735 0.026347484 0.015132414 -0.005005345 0.07005667 -0.017836992 0.05432411
-0.121295966 -0.11201969 -0.06834402 -0.015164427 0.015299298 0.27930817 -0.026510054 0.1292417
0.03548793 0.13190429 -0.02801375 -0.057626706 -0.046026047 0.025083553 0.034450453 -0.15614295
0.020624934 0.075616 0.020082103 -0.02657248 -0.024894629 -0.050087646 0.0055870954 -0.06622967
-0.0045657963 0.03255554 -0.07699683 -0.05803711 0.018266892 0.037966948 -0.026459752 -0.07531176
