3M/unifiedWeakest1M/critic.pt (torch, 62399 bytes, 15 tensors)

base.feature_norm.weight f4 [81]
00000000: c021 633f 2dab 8c3f 4ae9 773f dcf0 813f
00000010: 0b8f 2b3f f0a5 a13f ca54 6b3f 92db 643f
00000020: 13ee 733f ad27 683f e784 733f 060d 773f
00000030: 1c67 5c3f 53ad 663f b5c5 683f 85dd 753f
00000040: b1e8 7b3f 8d6d 843f 960d 753f 765d 783f
00000050: 5bb4 783f dab1 533f 0b06 853f e01e 763f
00000060: ddaf 7d3f ba7f 7c3f ca09 723f 0440 6b3f
00000070: 844d 723f 8c51 5c3f 5c56 693f 21f6 833f
00000080: cd9c 763f c226 793f eb28 753f 16d6 8a3f
00000090: f81f 8f3f c1dc 8b3f 3935 7a3f cc12 923f
000000a0: b0e5 853f 2ad9 7e3f e562 613f dc6f 7d3f
000000b0: b556 733f 0272 843f 7997 593f eacb 933f
000000c0: f527 823f fd3a 743f bd0a 7b3f acbf 873f
000000d0: bb1b 813f dd85 893f b9bf 7d3f b18b 953f
000000e0: eea6 763f 0f20 803f c3bf 753f 1173 6a3f
000000f0: 726e 743f cda6 6b3f d3c5 6f3f 75f2 783f
00000100: 1c1f 793f b605 7a3f 2866 a03f 57bb 753f
00000110: ae8f 793f 1aec 753f 8ccb 6e3f 56d1 693f
00000120: 88ec 6e3f affa 583f 92ea 673f ce4f 773f
00000130: 2a47 753f ed50 7b3f 01ff 553f 82e6 433f
00000140: c5a8 643f
0.88723373 1.0989739 0.96840346 1.015163 0.6701514 1.2628765 0.9192625 0.8939754
0.9528515 0.9068554 0.9512467 0.9650425 0.8609483 0.9010822 0.90926677 0.96041137
0.98401934 1.0345932 0.95723855 0.9701761 0.971502 0.82693255 1.0392469 0.9614086
0.9909647 0.98632395 0.94546187 0.91894555 0.9464953 0.8606193 0.911474 1.0309488
0.9633301 0.97324765 0.9576556 1.0846584 1.1181631 1.0926744 0.9773746 1.1411986
1.046072 0.99550116 0.88041526 0.9899881 0.9505418 1.0347292 0.84996754 1.1546605
1.0168444 0.9540251 0.9806326 1.0605369 1.0086588 1.0743977 0.9912067 1.1683255
0.96348464 1.0009784 0.9599573 0.9158183 0.95481026 0.9205139 0.9366123 0.9724496
0.97313094 0.97664964 1.2531176 0.9598898 0.9748486 0.9606339 0.9327934 0.91335046
0.9332967 0.8475751 0.905923 0.9660615 0.9581171 0.9817036 0.8359223 0.765236
0.8932002

base.feature_norm.bias f4 [81]
00000000: 1b99 4abd 6ecd 2b3d 8587 b03c e370 0c3c
00000010: b1cd 863b 5ea0 3dbd d87c 2e3d a3b1 9f3d
00000020: a8eb 193d 5099 1d3d 54bb 083d e693 ff3c
00000030: 936e 1a3d aa32 193d 6f90 5dbd faaf 1d3d
00000040: e758 913b 339c a6bc a03d 5b3d f790 273d
00000050: a2bf dc3c 0405 2c3d b164 45bb 37c9 0c3d
00000060: 52ec 293c ab4e 8c3c 9cfd c23c 480b 433d
00000070: 9053 b53c 6bc6 b53c d883 8d3d fe0d d2bc
00000080: 7d1d 133d 5485 923c 3428 be39 6dd9 40bc
00000090: cae9 5bbb 600d fc3b f83e 6bbc 5148 b43c
000000a0: 2a81 1b3c d69d 1b3d 1b62 1cbd 9e81 9bbc
000000b0: 51b9 84bd 3a2f e73c dfd6 fbbc 6a71 ab3c
000000c0: 0c7e 413d 65d9 793d 2d4f bfbb 5d0b 75bc
000000d0: 6793 06bc 0f79 c9ba f3db 9fbc 4655 f6bc
000000e0: 248b 2a3d 27b5 df3c fd6a aabc 1d86 42bd
000000f0: f7de 8bbc 49da abbd 3cea 79bd cb89 343d
00000100: 18fb 943c ba0d 663c 1cf9 45bc a54d 0e3d
00000110: 0a1d d33c 21da ce3b d92c 843d d309 4e3d
00000120: 7b93 ef3c 6254 683c 6c89 8c3d 68a3 60bd
00000130: 201c 6c3d ff96 b73c 7505 8ebc fe88 16bc
00000140: 99ec 34bb
-0.04946242 0.04194396 0.021548996 0.008571836 0.004113876 -0.046295516 0.04259953 0.077975534
0.037578255 0.03847629 0.033381775 0.031198453 0.037703108 0.037401833 -0.05409282 0.038497902
0.004435647 -0.020338153 0.053525567 0.040909734 0.026946846 0.04199697 -0.0030119831 0.03437158
0.010371285 0.017127356 0.023802571 0.04761818 0.022134572 0.02218934 0.06909913 -0.025641438
0.035916794 0.017885841 0.00036269578 -0.011770588 -0.0033556097 0.007692024 -0.014358275 0.02200714
0.009491244 0.03799232 -0.0381795 -0.018982705 -0.06480659 0.028220762 -0.030742107 0.020928103
0.04723935 0.06099834 -0.005838296 -0.0149563225 -0.008213854 -0.0015371161 -0.01951406 -0.030069958
0.0416366 0.02730806 -0.02080297 -0.04749118 -0.017074091 -0.08391244 -0.0610144 0.044076722
0.018186137 0.014041359 -0.012083318 0.034742016 0.025770683 0.006312624 0.064538665 0.050302338
0.029245129 0.014180275 0.06862149 -0.054843336 0.05764401 0.022410868 -0.017336586 -0.009187935
-0.0027606844

base.mlp.fc1.0.weight f4 [64, 81]
00000000: 23cd 3abe 322a 0b3d fab9 6e3e eebb 1b3e
00000010: 77e8 b43d 90f4 6abd a0b6 263d 4e81 363d
00000020: 53ed 74be 2eda 4f3e 9ddc 213e 4fbe ca3d
00000030: 7dec 713e 92c2 633e 11ce 243e b526 ce3d
00000040: ba63 8ebe ced1 813c b967 eb3c f68c 60be
00000050: 18d2 063e edd3 063d 6aa5 c83d e963 b6bd
00000060: 96b8 adbe 113a 0fbe 5478 c8bd 0bb7 44be
00000070: 4f4b 87bd d39a 0ebe c10d eebb f526 ac3d
00000080: 8d37 b03d f960 8e3e 7402 043e c8ab 75bd
00000090: 6891 c63d 948f 613d e0d7 0fbe 763b 2fbb
000000a0: bfa4 55be 882a 7c3e 2b8b 9c3d 743f 0bbd
000000b0: 44a5 c3bc 609c 0bbe b665 a13c 2b66 acbd
000000c0: eb47 9e3d b615 303e 0c85 2bbe 7f4d c43c
000000d0: c631 e4bd 91ce 90bd 712b 373e 83d7 5bbc
000000e0: 928e 6a3d 4ee7 a8bd 5982 22be 4cb0 54be
000000f0: e1eb fabe e6c5 ba3d 4966 273e 945a 363e
00000100: b956 ba3e 055b 743d af30 27be 18b7 593c
00000110: 6462 23be cc0d 93be 468a 203e 5261 0bbe
00000120: 442e 82be d7ec b4bb 69d4 c13d 4baf 813d
00000130: f1f2 b8bb 632e 80bd c456 d23d 882e 1bbe
00000140: 6fb4 0b3e 6215 40bc 8b08 a03e 25a4 a03e
00000150: 139d 6a3d f540 f63d 8d08 2fbf 39fb 95bd
00000160: c2e5 b3bc f23c 5e3e 981e 4d3e c335 28be
00000170: 8dcc 8c3e 532f 0cbe f046 76be e0cd 8dbd
00000180: b471 a9be 49a3 d3bd ccb1 333c 0a18 7ebd
00000190: c9af 523d 6c16 27bd 328a 14bd e3c3 203e
000001a0: 586d d03c ab88 1f3e aea3 8fbd 047e 963c
000001b0: f27b 1fbe 80d6 93be 2658 2f3e 2656 9e3e
000001c0: eec0 8bbd a0bb 7b3c 9e0f 783c 4ad1 93bd
000001d0: 3c16 ecbd 3858 c83d c059 58bd 956e 50bc
000001e0: e2e0 d3bc d193 b6bd 0af0 0fbd 0706 1abd
000001f0: bd38 0abe bde1 093e 5a30 183d f951 343e
00000200: e914 7a3e f7ff 6bbe 75cd 413d 71c4 e2bc
00000210: 6ace b9bd 1ca1 b2bd 07da 523e 781a 403e
00000220: 8582 8b3e 62bb 22be 29d2 19bd d081 14be
00000230: b83e 983a 3851 e33d f79a 4f3e ef3a 93bb
00000240: 64c2 8e3d 47bb 333e fe5f 393d 3761 073e
00000250: 41a6 20be 46b3 92be 2bdc 283e 0156 c23d
00000260: 59b0 213e c6ea 583e c5b5 31bc 10d1 6ebe
00000270: 75f2 8ebd 45a4 873e 05fd 85be e0ae 42bd
00000280: 7f1c 223c 8aca 0c3e db45 0ebe 55bf dbbd
00000290: 34da efbd 3302 e7bd 591d 16be 03c9 11bc
000002a0: 91f6 d23b 2d26 8ebc 7687 9e3d b334 e3bc
000002b0: 1ab7 71be 0a57 603d e82e 243e 265f 973e
000002c0: 1643 303d 23b2 403e 1c75 a13e b507 763c
000002d0: 1185 dabd 9ed8 fc3d 2095 85bc 0e1a adbe
000002e0: b7f7 b23d 4222 b9bd b8fa 8a3e 06bb 4bbe
000002f0: 52b8 c3bc 0a40 67bc 1eb7 0abe ba04 87bc
00000300: 96e5 81bd 4e71 b1be 5808 803d ac7d 2a3e
00000310: 2e09 31be e760 c43d cd81 2ebd c165 793d
00000320: 42e9 31be 371a 9a3e e264 0f3c 9683 433e
00000330: a16f ba3d 168a 80be 644f b6bd 8717 c33d
00000340: bf83 073e da1e 5d3d 9f6a 793e c969 18be
00000350: 9910 77be d94e 213e f512 573e c280 c9be
00000360: fb9a e8bd 5c96 a33d a006 0c3e a1b0 7d3c
00000370: c0d4 d73b 7129 6bbe 15ca 45bd 20d9 373e
00000380: 8c08 28bc 6484 b539 a978 0fbe d0f9 a53d
00000390: a76e 87be 2e4f a1be 54cd b3bd 34eb 823e
000003a0: 44e9 3e3e 420b 45be 4cc4 6bbd 087a d2bd
000003b0: ab82 2abe a3af 42bb c2fe 263e f9f9 843d
000003c0: a530 a5bc 1396 c6bd 7773 cb3d e113 2fbe
000003d0: 3a6a 0d3e 1db3 dc3d 7eb6 febd 3fed b0bc
000003e0: 7157 fdbc ee7d e9bc 76a9 d93d e837 973e
000003f0: 8ada 6ebe 55e6 5abd 317a 363d 7d4a f7bd
-0.18242316 0.033975787 0.23313132 0.15208408 0.08833402 -0.05736214 0.04070151 0.04455691
-0.23918657 0.20298073 0.15806814 0.0989958 0.2362537 0.22242191 0.16094233 0.100659765
-0.2781046 0.015847113 0.028735982 -0.21928772 0.13166082 0.032916952 0.09797175 -0.08905775
-0.3392989 -0.13986994 -0.09788576 -0.1921045 -0.06606161 -0.13926248 -0.007264823 0.08405868
0.086043455 0.2780836 0.12891561 -0.059978276 0.09695703 0.055068567 -0.14047194 -0.0026738322
-0.20863627 0.246256 0.07643732 -0.03399606 -0.023882516 -0.13633871 0.01970182 -0.084179245
0.07728561 0.17195782 -0.16749972 0.023962734 -0.11142306 -0.070706494 0.17887665 -0.013418081
0.057264872 -0.08247243 -0.15870036 -0.20770377 -0.49008086 0.091197774 0.16347612 0.1780799
0.3639429 0.059657115 -0.16327165 0.013288282 -0.15955502 -0.28721464 0.15677747 -0.13611344
-0.25425923 -0.0055213976 0.09464342 0.063322626 -0.0056441952 -0.062588476 0.102704555 -0.15154469
0.13643049 -0.011723848 0.31256518 0.31375232 0.057278704 0.12024108 -0.6837242 -0.073233075
-0.021960143 0.21702936 0.20031202 -0.16426758 0.2749981 -0.13689928 -0.24050498 -0.06924033
-0.3309456 -0.103338785 0.010967683 -0.062034644 0.051437173 -0.040792868 -0.036264606 0.15699725
0.025442764 0.15579478 -0.07013641 0.018370636 -0.15574625 -0.28874588 0.1712347 0.309251
-0.06823908 0.0153645575 0.015140442 -0.07217653 -0.11527678 0.097824514 -0.052819967 -0.012721677
-0.025864068 -0.089149125 -0.03514103 -0.037603404 -0.13498206 0.13465019 0.037155487 0.17609395
0.24422039 -0.23046862 0.04731508 -0.027681561 -0.090725735 -0.087221354 0.20590983 0.18760097
0.27248016 -0.15891793 -0.03755394 -0.14502645 0.0011615371 0.110994756 0.20273958 -0.0044931094
0.06970671 0.1755191 0.04525756 0.13220678 -0.15688421 -0.286524 0.16490237 0.0948906
0.15789928 0.21183309 -0.01084656 -0.23321939 -0.06979839 0.26492515 -0.261696 -0.047530055
0.009894489 0.13749138 -0.13893835 -0.10729853 -0.11711541 -0.11279716 -0.14659633 -0.008898023
0.0064380844 -0.017352188 0.07740681 -0.02773509 -0.23605004 0.054770507 0.16033518 0.2956478
0.043032728 0.18817954 0.3153466 0.015016486 -0.10669912 0.12346004 -0.01630646 -0.3380894
0.08738654 -0.09039737 0.27144408 -0.19895563 -0.023891602 -0.014114389 -0.13546416 -0.016481746
-0.06342618 -0.34656757 0.062515914 0.16649503 -0.17288658 0.09588795 -0.042604256 0.060888056
-0.17374137 0.30098125 0.00875208 0.19093165 0.09103323 -0.2510535 -0.08901861 0.09525972
0.13233851 0.0539845 0.24357079 -0.14884104 -0.24127425 0.15752734 0.21003325 -0.39356047
-0.11357685 0.07987663 0.13674402 0.015484006 0.006586641 -0.22965027 -0.048288424 0.1795392
-0.010255944 0.0003462165 -0.14010872 0.081042886 -0.2645161 -0.31505722 -0.087793976 0.2557007
0.18643671 -0.19242576 -0.05756025 -0.10277182 -0.16651408 -0.0029706738 0.1630812 0.06492991
-0.020164797 -0.09696593 0.099341325 -0.17097427 0.13810053 0.10776351 -0.12437151 -0.021597503
-0.030925484 -0.02850243 0.10628025 0.2953484 -0.23325554 -0.053442318 0.044550125 -0.120747544

base.mlp.fc1.0.bias f4 [64]
00000000: 5f49 213c 7255 e33b e6a5 5bbb cf02 643c
00000010: da5f 80bc 7171 273d 3c02 2ebc 0ec0 0bbb
00000020: 37e9 94bc 14c4 e337 e5e5 093c 2e7c a23b
00000030: 5941 21bc 7433 81b9 b6a8 babc f7dd 183d
00000040: 3089 1ebd e244 b6bb 0616 ddbc 9c0f 05bd
00000050: bed1 b83b b831 c73c 01c1 503b efe1 e3ba
00000060: 0a23 7abc ace4 62bd 6867 4bbb f92a 213d
00000070: 4f79 24bd 5966 343c df7a d93c 5771 933c
00000080: 71b9 54bc 6c44 1abd a9d8 7ebb e146 5a3c
00000090: ad98 4a3c 7fcd 973b b72b 023d 6af9 f53a
000000a0: b7b3 ca39 9e4b 3ebc b8ee 04bd 7e9d ad3c
000000b0: aa8b 0dbc 8574 17bd 216e afbb e3f9 173d
000000c0: 26e9 39bc 9ffe 1a3b 0470 39bc 5c74 8cbb
000000d0: 4d27 93bc 0931 0ebd bad1 bfbb 77dd f4bb
000000e0: 05e2 fc3b 05a0 1c3d 173e c9bc 6c28 debc
000000f0: 34ca 103b f961 8f3c 1b12 4abd b8cc a4bc
0.009844153 0.006937676 -0.0033515631 0.013916685 -0.015670706 0.04087967 -0.01062065 -0.002132419
-0.018177612 2.7151815e-05 0.0084166275 0.004958651 -0.00984224 -0.00024643133 -0.022785526 0.037321057
-0.03870505 -0.0055624107 -0.02698804 -0.03248559 0.0056402376 0.0243157 0.003185332 -0.0017386059
-0.015267143 -0.05539386 -0.0031036977 0.039347623 -0.04015475 0.01101073 0.026547847 0.01799838
-0.012983666 -0.03766291 -0.0038886464 0.013322563 0.012365502 0.0046326513 0.03177997 0.0018766348
0.0003866234 -0.011614708 -0.032454222 0.021193262 -0.008639256 -0.036976356 -0.0053537046 0.037103545
-0.011347091 0.00236503 -0.0113182105 -0.004286332 -0.017963076 -0.034714732 -0.005853859 -0.0074726897
0.0077173733 0.038238544 -0.02456574 -0.027118884 0.0022093179 0.017502772 -0.049333673 -0.020117149

base.mlp.fc1.2.weight f4 [64]
00000000: 7634 7c3f 4ee7 8b3f 1f2c 7b3f 02f7 823f
00000010: 9cca 723f dc64 853f 6f1c 803f fff2 7e3f
00000020: 51ae 813f 0037 a43f 81ab 893f 99f2 743f
00000030: bc8f 673f 192d 803f cb17 833f 7a18 7d3f
00000040: 862f 713f 62ef 753f 78ad 733f 4220 863f
00000050: f5a5 883f 7598 7b3f 6c24 823f 4777 833f
00000060: eb2f 753f 0079 733f 374a 683f d773 6c3f
00000070: c743 823f 23c3 853f ca49 823f 1708 903f
00000080: 1e3d 523f 3b36 6d3f c991 8a3f 0692 933f
00000090: db42 853f 66c2 803f 5461 893f a5a3 7c3f
000000a0: 320b 7c3f 8b3d 8f3f 0d29 813f eb03 7b3f
000000b0: 7846 7d3f bf02 663f 7186 783f 7833 823f
000000c0: 6e78 6e3f 1a76 8c3f 94a1 953f 918a 833f
000000d0: 6c66 763f cb4e 783f 3639 773f 361f 813f
000000e0: 13a0 783f 0c2e 803f 2b01 7c3f 1c68 733f
000000f0: e894 803f ebd1 803f 22ea 7c3f f416 753f
0.9851755 1.0929964 0.981142 1.0231631 0.9484041 1.0421405 1.0008677 0.9958953
1.0131322 1.2829285 1.0755464 0.95682675 0.90453696 1.0013763 1.0241636 0.98865473
0.9421314 0.96068394 0.9518657 1.0478594 1.0675646 0.98279506 1.0167365 1.0270776
0.9577624 0.95106506 0.9073824 0.9236426 1.0176934 1.0450176 1.0178769 1.1252469
0.8212451 0.92660874 1.082574 1.1528938 1.0411028 1.0059326 1.0732827 0.986872
0.9845458 1.1190656 1.0090653 0.98052853 0.9893565 0.8984794 0.9708014 1.0171957
0.9315251 1.0973542 1.1689935 1.0276662 0.96250033 0.9699523 0.9657167 1.008765
0.97119254 1.0014052 0.9843928 0.95080733 1.0045443 1.0064062 0.9879476 0.9573815

base.mlp.fc1.2.bias f4 [64]
00000000: fa22 673c a0d3 b93c 3dec 283c 5b5f b53b
00000010: c291 9abc fa2f 8dbb d89f e0bc 3a38 3dba
00000020: 2ba4 9abd d0c5 a1b9 e7de 163c 727a d33b
00000030: fbcd a9ba b4aa 60b9 ba5d 3fbd dee3 6e3c
00000040: 158b 943c c579 ad3c 62cc 5bbd 08e5 67bd
00000050: 0a8b c13b 992f 7a3c 88fa 6fba e63b 50b9
00000060: 39f0 063d 2c5d 75bd f5c9 193d 9b5e 0d3d
00000070: f405 c1bb d167 043d 64d4 8b3d 90d6 02bd
00000080: 521d 243c c9c7 2b3c 0061 da3c 6163 ea3b
00000090: 380d ac3b fbcf 583c 8991 3b3d ff21 9e3c
000000a0: 03ba a43c 48a5 66bd c87a 933b ddff 193d
000000b0: 8e68 81bc 57fa 2cbd d3b1 19bc 9f6f e33c
000000c0: ca86 2b3d 7a44 ae3b 5fd1 eebc 02a4 0c3c
000000d0: 0eef 23bd c48a d3bc 024d d53c e299 0a3c
000000e0: cabf a73c 7368 9f3c 832b a3bb 83a9 b6bc
000000f0: 2a5b f5ba 8d9e 83bc 8539 94bc 8823 863a
0.01410746 0.022683918 0.01031023 0.005535049 -0.01886833 -0.004308698 -0.02741997 -0.0007218156
-0.07550844 -0.00030855695 0.0092084175 0.0064538056 -0.0012955064 -0.00021425897 -0.046720244 0.014580695
0.018132726 0.021176228 -0.05366171 -0.056614906 0.0059064673 0.015270137 -0.00091544585 -0.0001985874
0.032943938 -0.05990331 0.037546117 0.03451405 -0.0058906022 0.03232557 0.0682762 -0.031942904
0.010016756 0.010484644 0.026657581 0.00715296 0.0052505992 0.01323318 0.04579309 0.01930332
0.020108229 -0.05630997 0.0045007206 0.037597526 -0.015796926 -0.04223093 -0.0093807755 0.027763186
0.04187659 0.0053182216 -0.02915257 0.008584024 -0.040022902 -0.025823005 0.026037697 0.00845954
0.020477194 0.019458985 -0.0049795522 -0.022297626 -0.0018719186 -0.016066814 -0.018093834 0.0010233978

base.mlp.fc_h.0.weight f4 [64, 64]
00000000: b65f af3d 4f3c 65be 5663 08bd 0bf2 843d
00000010: e010 093e b11e b6bd b325 7d3d ebf8 0e3e
00000020: 1f29 2bbe 33c8 b6bd 1e30 023e 24de e8bd
00000030: 6ba1 2f3d 5d97 433e 8aac 5abe 6e79 dc3d
00000040: 8df0 01be 113c 68be 6277 283c 1b39 0f3e
00000050: 6603 613e f04d 65bd 24b5 06be 83e8 74be
00000060: 6242 1bbe 5487 31be d058 753e 906b ad3e
00000070: d2b0 cc3d b34e 81be 4626 03be e1be 80be
00000080: 59e8 cebe 4803 db3e 2a2b 13be 8b8f bdbd
00000090: ad65 0a3e 167c 47be a38b d83d a9ba e7bd
000000a0: 38dc 4dbd 9836 503d 8029 c4bd ee92 2fbe
000000b0: 1fbe 043e 370f abbe 7ba9 c13d 227e 293d
000000c0: a177 9ebd 5c7f 3b3e e325 653e c8cc 96bc
000000d0: cc6e d13d b533 3b3e 5848 2dbe 10d7 28be
000000e0: 961e d93d 3a3f a8be eb65 bcbb d3e8 7ebd
000000f0: ad62 a33e a617 623e ee62 fe3d 89bd 0bbe
00000100: 5810 98bd 4b51 7d3d 2065 a83e 321d b8be
00000110: 5d88 193e ea14 88be 50ba a63d 621d 01be
00000120: cb0a 1a3d 8c1c 9dbe a308 573e fabf b4bd
00000130: 4f50 123e f71c 94be f18e f03d 4182 fd3d
00000140: 88d8 413e be14 b5bc c3f4 d9bd 9b4c 4dbc
00000150: 63a5 a63e eeb7 833d ed4d ba3e 61e6 e2bd
00000160: 60a9 b4bc a518 213d 087b 21be a755 d83c
00000170: 87f2 233e 785f 323d 509e 6abe 140c ce3d
00000180: 407a eb3c 1f52 043c 8aef 0e3b ec39 9d3d
00000190: 3f9d a7be 9130 3f3e a2bb be3d eb05 d4be
000001a0: f7a1 24be 038e 9f3d eb70 9b3d 9c93 533e
000001b0: c76a 413e b4db d8bd 3fe9 0abe a70b 78bd
000001c0: ff99 223e 71eb c33d 3585 803e dc62 bfbb
000001d0: eb69 99be c20b 523e 5843 273e 50ce 5abe
000001e0: dcb7 143e 0cac 353d 6cb2 c7bd 0a74 d53d
000001f0: d578 183e ae68 75bd a2bf 43be 9201 673e
00000200: 921b c03d 66ce 503e c71c 77bd 4a22 4abd
00000210: 1762 683e 5ffb 363e 4a63 e43e 2133 33bd
00000220: a3c5 3d3b 4444 773e 3989 72bd 014a 2c3d
00000230: e277 db3d f5c2 36bd e596 9fbe 9de2 ab3d
00000240: 70b2 c1bb 784d 2a3c c5c2 3e3e 32e2 c0bd
00000250: 4be4 913d 85e2 32be ed2b 3d3e c7c3 2d3e
00000260: 0d5c a5bd 95b7 1bbd 1a55 9e3d bdc7 58bd
00000270: 549a 5abe ae7c e53e db2c 6dbe 589b a03b
00000280: a365 19be ce2e 0a3e dfd0 423c e0ab 21be
00000290: 90d3 b63e 3125 8f3d f82a b6bd b44c 0ebe
000002a0: f07f c83b 8508 743d c874 053e 6e8a cf3d
000002b0: fa7b 023f 252b 97bd c340 d03e 7a8e 523e
000002c0: 85b5 eb3a 0ea7 73be 218d cfbc 172f 7e3d
000002d0: d25b e53d 03b6 c23d 4667 f93d 5dc8 563e
000002e0: 73c7 2fbd 91dd aebd 431b 273d 4818 4ebc
000002f0: 9fb1 86bd 1928 94be fcb6 fcbd 02a2 3c3e
00000300: b4ad f1be 0913 ac3e 5835 983d 7bf7 693c
00000310: 6c47 b0bc bc80 d7ba dfb6 04be e9b3 f63d
00000320: 31bd a4be b05f 77bd ff84 db3d 742b 89be
00000330: 64bb 27be 4cea 08be fb4a 64bd 4e95 31be
00000340: 4b96 303e 239f 903d 278b a13e e3bf abbc
00000350: 4a8e 323e cda8 74be f436 80be 4487 e03d
00000360: 94a4 5bbe 5cb1 3abe 4b5a 36be f6f3 a0bd
00000370: 6ef9 953e 71a7 a03d e43b 39be b9d7 50be
00000380: 743f 90be 5215 edbd 1ba0 643e 3e0e fa3b
00000390: 03f6 a73b 3efa 87be 556d 3bbd 63de 303e
000003a0: 2a5e fcbd 78c9 ffbc 2c64 19bd 1fa5 273d
000003b0: 8d6e 27be ab87 2f3e 5276 aa3e f365 96bd
000003c0: 4764 bd3d 96d6 103d ff16 34be b1d1 d5bd
000003d0: 046e cfbe 3d3f 013d 1627 39be c65e 063d
000003e0: af8b 11be 1270 b6bc 077c d5bc 9af4 c83d
000003f0: b6bb 533d e6e8 0ebd 079e 0a3e 2a6f 463e
0.08563177 -0.22386287 -0.03329786 0.064914785 0.13385344 -0.08892573 0.06180353 0.13962142
-0.16714905 -0.08924904 0.12713668 -0.11370495 0.04287855 0.1910071 -0.21354881 0.107653484
-0.12689419 -0.22679164 0.010282369 0.13986628 0.21973953 -0.05598253 -0.13155037 -0.23916821
-0.15162042 -0.1733678 0.2395966 0.33871126 0.09994663 -0.25255355 -0.12807569 -0.2514563
-0.40411642 0.4277594 -0.14371935 -0.09255894 0.13515349 -0.19480929 0.105735086 -0.113148995
-0.050258845 0.050833315 -0.09578228 -0.17145893 0.1296315 -0.33410046 0.09456154 0.041380055
-0.07737661 0.18310302 0.22377734 -0.018408194 0.10226211 0.18281443 -0.16922128 -0.1648829
0.10601537 -0.32860738 -0.0057494543 -0.062233757 0.3191122 0.22079334 0.12421213 -0.1364652
-0.07424992 0.061845105 0.32889652 -0.35959774 0.14993425 -0.26578456 0.08141005 -0.12608865
0.03760795 -0.30685842 0.20999388 -0.08825679 0.14288448 -0.28928348 0.11746014 0.123783596
0.18930256 -0.022104617 -0.10642388 -0.012530471 0.32548055 0.06431566 0.36387578 -0.110790975
-0.02205342 0.039330143 -0.15769589 0.02640803 0.16010486 0.043548077 -0.22911954 0.100608975
0.028744817 0.00807622 0.0021810257 0.07677063 -0.32737157 0.1867087 0.09313132 -0.41410765
-0.1607741 0.077907585 0.07589897 0.20661777 0.18888389 -0.1058878 -0.13565539 -0.060557988
0.15879057 0.09566391 0.2510163 -0.0058406424 -0.29963621 0.20512298 0.16334283 -0.21367764
0.14523262 0.04435353 -0.09750828 0.10422523 0.14889844 -0.059914283 -0.19116071 0.22559193
0.093802586 0.20391235 -0.06033018 -0.049349107 0.22693668 0.17869328 0.44607002 -0.043749932
0.0028956912 0.24147135 -0.059212897 0.042062763 0.10716225 -0.04461952 -0.3116981 0.083928324
-0.005911164 0.010394447 0.18628986 -0.09418143 0.071236216 -0.17469223 0.18473788 0.16969214
-0.08074198 -0.038016874 0.077310756 -0.05292486 -0.21347934 0.44821686 -0.23161642 0.004901331
-0.14980178 0.13494417 0.011890619 -0.15788221 0.35708284 0.069895156 -0.088949144 -0.13896447
0.006118767 0.059578437 0.1303283 0.10133825 0.50970423 -0.07381276 0.4067441 0.20562163
0.0017983174 -0.23794195 -0.02533585 0.062056627 0.11199154 0.09507372 0.12177901 0.2097487
-0.04291482 -0.08538354 0.040797483 -0.012579031 -0.06576847 -0.28936842 -0.12339589 0.18421176
-0.47202837 0.33608273 0.074320495 0.014280195 -0.021518432 -0.0016441564 -0.12960385 0.12046034
-0.32175592 -0.06039399 0.10718726 -0.26790965 -0.16380078 -0.13370627 -0.05573557 -0.17342111
0.17244832 0.07061603 0.31551477 -0.020965522 0.17437091 -0.23892517 -0.25041926 0.109633
-0.214495 -0.1823172 -0.17807882 -0.07859032 0.29291862 0.07844437 -0.18089253 -0.20394792
-0.2817341 -0.11576332 0.223267 0.0076310923 0.0051257624 -0.26558107 -0.045758564 0.17272334
-0.12322648 -0.031223997 -0.037449047 0.040928956 -0.16350766 0.17141597 0.33293396 -0.07343664
0.09247642 0.035360895 -0.17586897 -0.10440386 -0.40513623 0.03155445 -0.18081316 0.032805227
-0.14213441 -0.022270236 -0.026060117 0.09812279 0.051692687 -0.034890078 0.13536845 0.19378343

base.mlp.fc_h.0.bias f4 [64]
00000000: 0000 0000 0000 0000 0000 0000 0000 0000
00000010: 0000 0000 0000 0000 0000 0000 0000 0000
00000020: 0000 0000 0000 0000 0000 0000 0000 0000
00000030: 0000 0000 0000 0000 0000 0000 0000 0000
00000040: 0000 0000 0000 0000 0000 0000 0000 0000
00000050: 0000 0000 0000 0000 0000 0000 0000 0000
00000060: 0000 0000 0000 0000 0000 0000 0000 0000
00000070: 0000 0000 0000 0000 0000 0000 0000 0000
00000080: 0000 0000 0000 0000 0000 0000 0000 0000
00000090: 0000 0000 0000 0000 0000 0000 0000 0000
000000a0: 0000 0000 0000 0000 0000 0000 0000 0000
000000b0: 0000 0000 0000 0000 0000 0000 0000 0000
000000c0: 0000 0000 0000 0000 0000 0000 0000 0000
000000d0: 0000 0000 0000 0000 0000 0000 0000 0000
000000e0: 0000 0000 0000 0000 0000 0000 0000 0000
000000f0: 0000 0000 0000 0000 0000 0000 0000 0000
0.0 0.0 0.0 0.0 0.0 0.0 0.0 0.0
0.0 0.0 0.0 0.0 0.0 0.0 0.0 0.0
0.0 0.0 0.0 0.0 0.0 0.0 0.0 0.0
0.0 0.0 0.0 0.0 0.0 0.0 0.0 0.0
0.0 0.0 0.0 0.0 0.0 0.0 0.0 0.0
0.0 0.0 0.0 0.0 0.0 0.0 0.0 0.0
0.0 0.0 0.0 0.0 0.0 0.0 0.0 0.0
0.0 0.0 0.0 0.0 0.0 0.0 0.0 0.0

base.mlp.fc_h.2.weight f4 [64]
00000000: 0000 803f 0000 803f 0000 803f 0000 803f
00000010: 0000 803f 0000 803f 0000 803f 0000 803f
00000020: 0000 803f 0000 803f 0000 803f 0000 803f
00000030: 0000 803f 0000 803f 0000 803f 0000 803f
00000040: 0000 803f 0000 803f 0000 803f 0000 803f
00000050: 0000 803f 0000 803f 0000 803f 0000 803f
00000060: 0000 803f 0000 803f 0000 803f 0000 803f
00000070: 0000 803f 0000 803f 0000 803f 0000 803f
00000080: 0000 803f 0000 803f 0000 803f 0000 803f
00000090: 0000 803f 0000 803f 0000 803f 0000 803f
000000a0: 0000 803f 0000 803f 0000 803f 0000 803f
000000b0: 0000 803f 0000 803f 0000 803f 0000 803f
000000c0: 0000 803f 0000 803f 0000 803f 0000 803f
000000d0: 0000 803f 0000 803f 0000 803f 0000 803f
000000e0: 0000 803f 0000 803f 0000 803f 0000 803f
000000f0: 0000 803f 0000 803f 0000 803f 0000 803f
1.0 1.0 1.0 1.0 1.0 1.0 1.0 1.0
1.0 1.0 1.0 1.0 1.0 1.0 1.0 1.0
1.0 1.0 1.0 1.0 1.0 1.0 1.0 1.0
1.0 1.0 1.0 1.0 1.0 1.0 1.0 1.0
1.0 1.0 1.0 1.0 1.0 1.0 1.0 1.0
1.0 1.0 1.0 1.0 1.0 1.0 1.0 1.0
1.0 1.0 1.0 1.0 1.0 1.0 1.0 1.0
1.0 1.0 1.0 1.0 1.0 1.0 1.0 1.0

base.mlp.fc_h.2.bias f4 [64]
00000000: 0000 0000 0000 0000 0000 0000 0000 0000
00000010: 0000 0000 0000 0000 0000 0000 0000 0000
00000020: 0000 0000 0000 0000 0000 0000 0000 0000
00000030: 0000 0000 0000 0000 0000 0000 0000 0000
00000040: 0000 0000 0000 0000 0000 0000 0000 0000
00000050: 0000 0000 0000 0000 0000 0000 0000 0000
00000060: 0000 0000 0000 0000 0000 0000 0000 0000
00000070: 0000 0000 0000 0000 0000 0000 0000 0000
00000080: 0000 0000 0000 0000 0000 0000 0000 0000
00000090: 0000 0000 0000 0000 0000 0000 0000 0000
000000a0: 0000 0000 0000 0000 0000 0000 0000 0000
000000b0: 0000 0000 0000 0000 0000 0000 0000 0000
000000c0: 0000 0000 0000 0000 0000 0000 0000 0000
000000d0: 0000 0000 0000 0000 0000 0000 0000 0000
000000e0: 0000 0000 0000 0000 0000 0000 0000 0000
000000f0: 0000 0000 0000 0000 0000 0000 0000 0000
0.0 0.0 0.0 0.0 0.0 0.0 0.0 0.0
0.0 0.0 0.0 0.0 0.0 0.0 0.0 0.0
0.0 0.0 0.0 0.0 0.0 0.0 0.0 0.0
0.0 0.0 0.0 0.0 0.0 0.0 0.0 0.0
0.0 0.0 0.0 0.0 0.0 0.0 0.0 0.0
0.0 0.0 0.0 0.0 0.0 0.0 0.0 0.0
0.0 0.0 0.0 0.0 0.0 0.0 0.0 0.0
0.0 0.0 0.0 0.0 0.0 0.0 0.0 0.0

base.mlp.fc2.0.0.weight f4 [64, 64]
00000000: a373 ba3d b7e4 34be 3342 0abb 6997 443d
00000010: f77b df3d 9a3e b5bd ccb4 043d bc86 223e
00000020: dbae 29be 0776 7bbe 9444 303e 84a8 8ebd
00000030: 1718 393c 7d18 4b3e 9776 9bbe 0232 f13d
00000040: aec5 1ebe f48e 4dbe 18c0 553d a959 313e
00000050: eef0 653e 5359 c4bd 888c 14be 08da 7abe
00000060: 24ad e3bd 17c3 26be 4d7b 393e da37 a03e
00000070: 1f1d e43d d40e bfbd d0f0 14be eb2e 60be
00000080: fd84 b0be 0ac3 e03e 77d0 6cbe 2bdd 1bbe
00000090: 4428 a63d bd09 5cbe 0018 8f3d 4c2a d3bd
000000a0: 7747 28bd fdd0 4a3d 0630 a8bd 1f39 15be
000000b0: 80c6 f63d 3297 8fbe b003 093e e531 813d
000000c0: b732 9cbd 27cf 2b3e 4bf6 3e3e a9f3 c0bc
000000d0: 9a1e c13d 0149 413e 2cd3 36be abdf 08be
000000e0: 5620 bf3d c121 9ebe 5e64 6a3c cba9 a4bd
000000f0: 234d a43e e43d 783e cf5e 1d3e 8785 8ebd
00000100: e004 a5bd 5a7a 7c3d 5d18 b13e 3126 c8be
00000110: 94ba 0f3e c7f0 81be 6563 ab3d 5a42 05be
00000120: a615 a03d b906 d1be f77c a83e 8ded 263b
00000130: 4372 a93d 2d84 9abe 1b9c 763c c168 ef3d
00000140: 57f2 2f3e f280 38bc 2930 9bbd 40f7 4b3c
00000150: 057b b23e a089 9b3c 79af bf3e 7c30 40bd
00000160: f4eb b3bb 210f d63c 51db 0ebe c528 98bd
00000170: 62d5 173e caf8 51bc 1672 7dbe 409b 183e
00000180: de25 4f3c ee48 cb3d cdeb d53b b9c6 253e
00000190: 28ec 0dbf cd3b 223e 6797 0abb 3032 d8be
000001a0: 94f4 1fbe aedd f23d 3992 553d 660b 4c3e
000001b0: 5dc6 373e 8721 bfba 9d22 e7bd de87 64bd
000001c0: 5a30 0c3e 4c04 973c 1153 a33e e30b 3bbd
000001d0: 9c2e 8bbe cece 833e 491c 123e 1b6e 89be
000001e0: ae29 0e3e c19f 2f3d a5fd 8dbd 36bb 373e
000001f0: 676c f63d 2608 85bd 60fc 2cbe 270c 4f3e
00000200: 8833 043e b9ba 3e3e 21ad 03bd 198a e7bc
00000210: ed9d 393e d9ac 5a3e c03e b83e 8a20 8d3c
00000220: 5c8a a13b 8787 283e 1cbc 373c 061d 813d
00000230: 034d dc3d 7b16 64bc 58cd a0be 32af c33d
00000240: cc91 0e3d 6845 2b3c c2a2 573e 7650 81bd
00000250: cd24 e93d b128 76be 8c78 123e e37f d83d
00000260: 6620 acbd 0b4b 67bd 527f 8f3d e6a8 19be
00000270: 5f2b 41be 88cc d03e 6224 4bbe db30 273d
00000280: c43a 32be d4cc 6f3e 74a9 87bd aba4 a2be
00000290: 849c 853e 652f a23d 2835 a0bc 632b e5bd
000002a0: f998 06bd c349 a13d 9295 213e 00f5 0a3e
000002b0: 49fd 063f b0ce 92bc 1ff3 c03e 73cf 673e
000002c0: a093 793c 5815 9fbe 3a1b 523d 4891 913d
000002d0: 25f1 023e 7184 1e3e 4f1e 273e 7e5a 6c3e
000002e0: 8dda d8bc 0583 c8bd 664e 54bc ae35 57bd
000002f0: 207d 5bbd d39a 82be f359 97bd 06cb 053e
00000300: cd88 dbbe 31bf 323e f4a9 e93d 4a3f 3b3c
00000310: 4af5 61bc 176e 043d d289 33be bc5f 0e3e
00000320: 7c16 a4be 26cc 49bc 828f 033e 43a5 6bbe
00000330: 5cec 96be 4b76 b6bd 46ee d2bd cebb ffbd
00000340: 9ad0 613e 154c 193e cd07 703e 6614 f83c
00000350: 7657 213e e59b 4cbe c0b6 4dbe caa4 1d3e
00000360: 3a3a 27be 69db 8cbe 1dde 02be 83f3 0bbe
00000370: 4bc5 b03e 4cdf 473d 3da7 1abe 6c3a 13be
00000380: 6ea0 83be 3da0 143d 3e46 8a3e 11df e0bd
00000390: cbcd aebc 27ec 5abe 5473 3fbd 0c8c 5e3e
000003a0: bccd bcbe 401b 67bd 5058 673c 31ca dc3d
000003b0: d4c2 21be 0a96 833d 3102 953e d057 32bd
000003c0: ef75 0a3e 82d9 063e 7a25 e1bd 9947 6ebd
000003d0: 486e f2be 248c edbc 700a 0fbe 4290 1d3d
000003e0: b060 5cbe ab88 42bd 14e7 17be 3445 3e3d
000003f0: 37dd e03d d886 803b f7a7 673e 7339 4c3e
0.09104087 -0.17665373 -0.0021096587 0.04799596 0.10912316 -0.08849831 0.032398984 0.1587171
-0.16570608 -0.24556743 0.1721366 -0.069657356 0.011297247 0.1983356 -0.30363914 0.11777116
-0.15505096 -0.20074064 0.052185148 0.17319359 0.22455189 -0.0958735 -0.14506733 -0.24497235
-0.11117008 -0.16285358 0.18113442 0.3129261 0.11138367 -0.09329 -0.14544988 -0.21892898
-0.34476462 0.43898803 -0.23126398 -0.15221088 0.08113149 -0.2148809 0.069869995 -0.10310802
-0.04108378 0.049515713 -0.08212285 -0.14572571 0.120495796 -0.2804504 0.13380313 0.06308345
-0.076268606 0.16778241 0.18648641 -0.023553686 0.09429665 0.18875505 -0.17853993 -0.13366573
0.093323395 -0.30885127 0.014306156 -0.08040198 0.320901 0.2424236 0.15368198 -0.06959062
-0.080575705 0.06164012 0.345889 -0.39091638 0.14036018 -0.2537901 0.083685674 -0.13013592
0.07816629 -0.4082544 0.3290784 0.002547118 0.08273747 -0.30178967 0.015051867 0.11689902
0.17182289 -0.011261212 -0.07577545 0.012449086 0.3485948 0.018986523 0.37438563 -0.04692124
-0.0054907743 0.02613026 -0.1395085 -0.07429651 0.14827493 -0.012815664 -0.24750552 0.14902973
0.012643306 0.099260196 0.006528354 0.16189088 -0.5543847 0.15843125 -0.0021147372 -0.4222579
-0.15620643 0.11858688 0.052141402 0.19926223 0.17946763 -0.0014582135 -0.11285899 -0.055793636
0.1369032 0.018434666 0.31899312 -0.045665633 -0.27183998 0.25743717 0.14268602 -0.26841816
0.13883087 0.042876963 -0.069331445 0.17942509 0.12032395 -0.06495695 -0.16893148 0.2021948
0.12910283 0.18625917 -0.03214753 -0.028264092 0.1812665 0.21354999 0.35985374 0.01722743
0.004929824 0.1645795 0.011214282 0.06304364 0.10756876 -0.013921375 -0.31406665 0.095549
0.03480701 0.010453559 0.21058181 -0.06314175 0.11383972 -0.2403896 0.14303797 0.105712675
-0.08404617 -0.05646805 0.07006706 -0.15005836 -0.18864201 0.40781045 -0.19838098 0.040818077
-0.1740523 0.2341798 -0.066241175 -0.31766257 0.26095974 0.07919196 -0.019556597 -0.11189916
-0.03286073 0.07875397 0.15779713 0.13570023 0.5273023 -0.017920822 0.37685487 0.2263773
0.01523295 -0.3107097 0.051295497 0.07107788 0.12787302 0.1548021 0.16320156 0.23081395
-0.0264714 -0.09790615 -0.012958145 -0.052541427 -0.053586125 -0.25508747 -0.07390203 0.13065729
-0.42877808 0.17455746 0.11409369 0.0114286635 -0.013791392 0.032331552 -0.17533043 0.13903707
-0.32048404 -0.012316739 0.12847713 -0.23012261 -0.29477203 -0.08909281 -0.10299353 -0.12486993
0.22052231 0.14970429 0.23440476 0.030283164 0.1575602 -0.19981344 -0.20089245 0.15394893
-0.16330805 -0.27511147 -0.12780042 -0.13667111 0.34525523 0.048796937 -0.15102859 -0.14377755
-0.25708336 0.036285628 0.27006716 -0.109800465 -0.021338364 -0.21379147 -0.046740845 0.21733111
-0.36875713 -0.056422472 0.014120176 0.107807525 -0.15796977 0.06425102 0.29103234 -0.043540776
0.1352155 0.1316891 -0.10993476 -0.05817375 -0.47349763 -0.028997488 -0.13968825 0.038467653
-0.21521258 -0.047493618 -0.14834243 0.046452716 0.109796934 0.0039223246 0.22622667 0.1994379

base.mlp.fc2.0.0.bias f4 [64]
00000000: b62c d2bb e524 a33b 27a5 9abc 3f81 26bd
00000010: 8a0a ebbc 24df bbbc 959b 5ebd 51b8 3c3c
00000020: 3e12 4f3c 01bf bb3b 33e2 d3bc dc36 08bd
00000030: 9f77 ebbc 8550 a93b a4c1 da3b 424c 5cbc
00000040: 7936 dfbc 63a8 23bc f2af e3bc c204 eebb
00000050: 8b84 4bbd 7bdd b2bc 4c3c 21bc 7d70 923e
00000060: 6d10 babc 8fd9 46bc b7d5 8ebc 129a db3b
00000070: a683 463d c447 58bc 6c22 a2bc 579d 363d
00000080: dd77 0bbd ed66 e53b fbeb 4d3a d126 983c
00000090: a9c7 45bc 8742 393e 9e2e 24bc e076 34bc
000000a0: 8761 bb3b f893 a8bb 7066 963c 011c 9dbc
000000b0: 9147 debc 0dd4 f73b 8f9d 00bd 3efa 8abc
000000c0: bddf 9ebc 5143 9bbc a0fd 47bc 81bd 09bd
000000d0: dc5b 40bc 1e5d 81bc 6324 0abc 1122 f43c
000000e0: 5438 94bc 0649 94bc 5178 4fbc b1af 2ebc
000000f0: 6000 13bc 41cd 383b ccfe 23bd d127 36bc
-0.0064140214 0.0049787634 -0.018877579 -0.040650602 -0.028691549 -0.02293355 -0.054347593 0.011518554
0.012638627 0.0057295565 -0.025864696 -0.033255443 -0.028743563 0.0051670694 0.006675916 -0.013445916
-0.027247654 -0.009988877 -0.027793858 -0.007263751 -0.04968695 -0.021834126 -0.009841036 0.28601447
-0.02271291 -0.012136831 -0.017435892 0.006701716 0.048465393 -0.013200704 -0.019791804 0.044583645
-0.034049857 0.007000795 0.0007855293 0.018573197 -0.0120715285 0.18091784 -0.01002088 -0.01101467
0.0057184133 -0.0051445924 0.018359393 -0.019178392 -0.027133735 0.00756312 -0.03140026 -0.016965028
-0.019393796 -0.018952997 -0.012206465 -0.03362799 -0.011740651 -0.015791472 -0.008431527 0.0298014
-0.018093266 -0.018101227 -0.012662963 -0.010662005 -0.008972257 0.0028198513 -0.040037915 -0.011117891

base.mlp.fc2.0.2.weight f4 [64]
00000000: 9465 6f3f 1954 823f 0e23 773f e0c2 7e3f
00000010: a74e 673f eb5f 743f fa7a 7e3f a732 753f
00000020: e48d 6b3f e7d6 803f 852e 843f ba30 813f
00000030: 7024 853f 5244 6c3f 67aa 653f 4953 6f3f
00000040: ec39 7d3f 04a8 703f ac6b 7b3f 5f7f 7c3f
00000050: 030e 823f 086d 703f 307b 793f d128 5c3f
00000060: 1f38 703f 5651 703f 78a8 693f 9c87 823f
00000070: 3c97 853f c51c 7b3f af7e 723f e230 8a3f
00000080: 97f4 883f c716 803f 9525 753f 82af 863f
00000090: ddfe 723f e50f c53e e87a 6b3f 66c4 723f
000000a0: 9a0f 793f dae5 813f 8b9a 723f 72cc 793f
000000b0: d572 7f3f 81ee 773f 703d 813f 6ef8 793f
000000c0: 7365 733f dace 763f 00a5 673f 7933 763f
000000d0: d3f8 8a3f 7f4f 683f 3f4c 813f 0e1b 843f
000000e0: c810 753f 1155 803f 42d7 743f 1121 803f
000000f0: 6076 703f 7827 703f 7f33 783f 3097 843f
0.9351437 1.0181915 0.96537864 0.99516106 0.9035439 0.9545886 0.994064 0.95780414
0.9201338 1.0065583 1.0326697 1.0092995 1.0401745 0.9229175 0.8971314 0.9348646
0.98916507 0.9400637 0.9821117 0.9863185 1.0160526 0.9391637 0.97453594 0.8599978
0.93835634 0.9387411 0.9127269 1.0197635 1.0436778 0.98090774 0.94724554 1.0796168
1.0699643 1.0006951 0.9576047 1.0522311 0.9492014 0.3848869 0.91984415 0.9483093
0.9728943 1.014827 0.94767064 0.97577584 0.99784595 0.96848303 1.0096874 0.976447
0.95076674 0.9640938 0.90486145 0.9617229 1.0857185 0.907463 1.0101393 1.0320756
0.9572873 1.002596 0.9564096 1.0010091 0.93930626 0.93810225 0.96953577 1.0358639

base.mlp.fc2.0.2.bias f4 [64]
00000000: 1f97 cbbc 6e2b 15bd 3a73 2ebd 5670 dfbc
00000010: ea5d d83c 01b3 29bd 0904 edbc d16c ac3c
00000020: ae14 ea3c 22b5 ebbc 4d02 00bd f834 9ebb
00000030: 9619 383d a4a7 10bd 990c 0d3d 5fbf cabd
00000040: bd00 0abd df33 fdbc d3a1 493d b68b 00bd
00000050: c87c a7bc bf38 f3bc f95f 203d 0f4d b8bd
00000060: 212b 043d ed39 083d 8478 4c3d 68c8 2a3d
00000070: ddad 673d 8a6e 343d 0da4 11bd 7f29 01bd
00000080: 5415 c7bc 1c1f 2fbd bce7 c6bc c5bb 223d
00000090: 815c 8dba b12d 60be dd96 183d 45f1 183d
000000a0: 5462 33bd cb5c 173d 048d 023d 6470 cebc
000000b0: 39de 1f3d bbe1 133c e64c 303d 2f9f d1bc
000000c0: 9eb7 23bd 8164 bdbc c0a8 a23c a111 21bd
000000d0: 5442 3c3d 9205 073d 8132 263d 0910 953d
000000e0: 4f5c ac3d 3b34 fbbc 2e0e 06bd a3d6 d4bc
000000f0: 5d07 dfbc 1b3d 063d 9675 3abd 73d1 09bd
-0.024852334 -0.03641837 -0.042590357 -0.027275246 0.02641197 -0.041430477 -0.028932588 0.021047981
0.028574314 -0.028772894 -0.031252194 -0.0048280917 0.044946276 -0.035316125 0.034435842 -0.098997824
-0.03369211 -0.030908523 0.049226593 -0.03138324 -0.020445243 -0.029690145 0.039154027 -0.08999073
0.032267693 0.033258367 0.04991962 0.04169503 0.056562293 0.04405073 -0.03555684 -0.031533714
-0.024302162 -0.042754278 -0.024280421 0.039729852 -0.0010785015 -0.2189243 0.03725325 0.037339468
-0.043794945 0.03695373 0.031872764 -0.025200076 0.039030287 0.009025986 0.043042086 -0.0255886
-0.039970033 -0.023119213 0.019855857 -0.039323453 0.045961693 0.032964297 0.040575508 0.07278449
0.08416044 -0.030664554 -0.032728367 -0.025981253 -0.02722519 0.03277312 -0.045522295 -0.033647012

v_out.weight f4 [1, 64]
00000000: 69a6 a03d cfd5 b53d 11a2 123d 4a1a f13d
00000010: c9ff adbd 6a7c 033e 795f ba3d 4fa9 90bd
00000020: 7705 debd 4e3c 153e c344 423e d98c 4f3d
00000030: a3b9 02be c5d8 fa3d 77ac 27be 73b2 b03c
00000040: 119e d03d 3b1e 023e e969 3ebd 8685 353e
00000050: 352b 983d 92d2 933d cd75 97bd 5918 9b3c
00000060: 6aef 59bd 34e6 e1bd 439c 473c e06a 03be
00000070: 246a abbd 217b 67bd 99ca 8e3c bb6b d43d
00000080: 05d4 183e dba2 883d 92fe af3d a1b4 adbd
00000090: 6248 ea3c a0b1 02bc 0bff 10be a4ad b6bd
000000a0: 5ab0 ae3d b5f1 f7bd 4875 0cbe e0ea 783d
000000b0: 007f 34be a90a 75bd c598 dfbd ff29 d23d
000000c0: 36c9 9d3d 5690 3e3d 2cce 6fbc 79c9 273d
000000d0: 95e0 bdbd 56dc 16be 298b 82bd 5c05 96bd
000000e0: ad6d d1bc 6d5c 5e3e 1695 7a3e 2900 b33d
000000f0: fca7 b23d 1f59 e0bd b387 253d f6ff ef3d
0.0784424 0.088786714 0.03579909 0.11772592 -0.08496053 0.12840429 0.09100241 -0.07063543
-0.10840886 0.14573786 0.18971543 0.050671432 -0.12766127 0.12248377 -0.16374384 0.021569466
0.10186399 0.12706845 -0.046487723 0.17726716 0.07430116 0.072178975 -0.073955156 0.018932508
-0.05320684 -0.11030236 0.012183252 -0.12833738 -0.08369854 -0.05651391 0.01743059 0.103721105
0.14924629 0.06671687 0.08593477 -0.08481718 0.028598968 -0.007976919 -0.14159791 -0.08919838
0.0852973 -0.12106649 -0.13716614 0.06077087 -0.17626572 -0.05982462 -0.1091781 0.10261916
0.077043936 0.04652437 -0.014636558 0.040963624 -0.09271351 -0.14732489 -0.06374199 -0.07325241
-0.025564993 0.21714945 0.24470934 0.08740265 0.08723447 -0.109544985 0.040412616 0.117187425
