8M/unifiedWeakest1M/critic.pt (torch, 107199 bytes, 15 tensors)

base.feature_norm.weight f4 [251]
0	0x3f7bf678	0.98422956
1	0x3f709df6	0.9399103
2	0x3f83e11c	1.0303073
3	0x3f86edaa	1.0541279
4	0x3f47ac3e	0.77997196
5	0x3f916cab	1.1361288
6	0x3f70e4d7	0.9409918
7	0x3f7b6884	0.98206353
8	0x3f7db929	0.99110657
9	0x3f5ede9e	0.87058437
10	0x3f64e7e8	0.8941636
11	0x3f68ff56	0.9101461
12	0x3f75c8f4	0.96009755
13	0x3f7adee4	0.97996354
14	0x3f738d3b	0.95137376
15	0x3f6c1207	0.9221501
16	0x3f77c1fd	0.9678038
17	0x3f7852cd	0.97001344
18	0x3f75b0ab	0.959727
19	0x3f67d177	0.90553993
20	0x3f7712e2	0.9651319
21	0x3f6bc0d2	0.92091095
22	0x3f7bb4ab	0.9832255
23	0x3f70dc39	0.94086033
24	0x3f691a7f	0.91056055
25	0x3f78fd49	0.9726148
26	0x3f536074	0.8256905
27	0x3f900311	1.1250936
28	0x3f7cd721	0.9876576
29	0x3f6dd4c8	0.92902803
30	0x3f74dab5	0.9564622
31	0x3f652b00	0.8951874
32	0x3f651e67	0.89499515
33	0x3f636252	0.888219
34	0x3f6d05dc	0.92587066
35	0x3f784a1d	0.9698809
36	0x3f80312e	1.0015008
37	0x3f770beb	0.9650256
38	0x3f72cf6a	0.9484774
39	0x3f791f97	0.9731383
40	0x3f763652	0.96176636
41	0x3f6bbec3	0.92087954
42	0x3f76f572	0.9646827
43	0x3f73ecb5	0.9528306
44	0x3f7b75bf	0.9822654
45	0x3f845e79	1.0341331
46	0x3f6fb5c7	0.93636745
47	0x3f8c1862	1.0944941
48	0x3f6f0716	0.9337019
49	0x3f91a90e	1.1379716
50	0x3f76cd9d	0.9640749
51	0x3f82ef6b	1.0229315
52	0x3f74963e	0.9554175
53	0x3f652f08	0.8952489
54	0x3f6aabd6	0.9166845
55	0x3f68c33d	0.9092291
56	0x3f7573e0	0.95879936
57	0x3f7b83e5	0.9824813
58	0x3f74fc92	0.9569789
59	0x3f709670	0.9397955
60	0x3f6fd209	0.93679863
61	0x3f5e435e	0.86821544
62	0x3f72f5aa	0.94906104
63	0x3f7b9e18	0.98288107
64	0x3f75167d	0.9573744
65	0x3f71c3b2	0.9443923
66	0x3f7f36bb	0.9969289
67	0x3f7d7aa1	0.9901524
68	0x3f6de2bd	0.929241
69	0x3f7a74f1	0.9783469
70	0x3f5901a2	0.84768116
71	0x3f8f686f	1.1203746
72	0x3f73e9ae	0.9527844
73	0x3f7e6451	0.9937182
74	0x3f74dd19	0.9564987
75	0x3f64c4e7	0.8936295
76	0x3f73ebac	0.9528148
77	0x3f7abd91	0.97945505
78	0x3f6a35b3	0.9148819
79	0x3f847466	1.0348022
80	0x3f63ff23	0.8906118
81	0x3f5a258c	0.8521354
82	0x3f7916cd	0.97300416
83	0x3f6ea239	0.9321628
84	0x3f73e361	0.9526883
85	0x3f7c8c94	0.98652005
86	0x3f76fbcc	0.9647796
87	0x3f797a82	0.9745256
88	0x3f809748	1.0046167
89	0x3f7087ee	0.9395741
90	0x3f80e5d5	1.0070139
91	0x3f6a78fd	0.91590863
92	0x3f6b07b6	0.9180864
93	0x3f9960fd	1.1982723
94	0x3f7a8760	0.97862816
95	0x3f802bdc	1.0013385
96	0x3f71d617	0.944673
97	0x3f60b607	0.8777775
98	0x3f60b818	0.87780905
99	0x3f6bc56f	0.92098135
100	0x3f75b218	0.95974874
101	0x3f6c608d	0.92334825
102	0x3f7e9b1f	0.99455446
103	0x3f78deca	0.9721495
104	0x3f791c74	0.9730904
105	0x3f79b27e	0.9753798
106	0x3f74f1d0	0.95681477
107	0x3f777505	0.9666293
108	0x3f7a1c11	0.97699076
109	0x3f792f6d	0.9733799
110	0x3f7b4560	0.9815273
111	0x3f7dfa54	0.99210095
112	0x3f7742b7	0.96586174
113	0x3f73f6bd	0.9529837
114	0x3f6ac1d3	0.91702
115	0x3f95b568	1.1695986
116	0x3f751268	0.9573121
117	0x3f7af07a	0.9802319
118	0x3f7638b1	0.96180254
119	0x3f681552	0.9065753
120	0x3f74899c	0.95522475
121	0x3f6a92d9	0.9163032
122	0x3f764e51	0.9621325
123	0x3f67f3e0	0.906065
124	0x3f6fd690	0.9368677
125	0x3f78181c	0.9691179
126	0x3f6d94ec	0.9280536
127	0x3f785de1	0.9701825
128	0x3f764fd2	0.96215546
129	0x3f6df051	0.9294482
130	0x3f7787f3	0.9669182
131	0x3f79bb1f	0.9755115
132	0x3f761f5b	0.96141595
133	0x3f716298	0.9429107
134	0x3f727ffd	0.94726545
135	0x3f70535e	0.9387721
136	0x3f63ee92	0.89035904
137	0x3f926c47	1.1439294
138	0x3f65f346	0.8982433
139	0x3f6e766d	0.93149453
140	0x3f784f26	0.9699577
141	0x3f6f1c8c	0.93402934
142	0x3f6dc91e	0.92885005
143	0x3f68ce99	0.90940243
144	0x3f81412c	1.0098014
145	0x3f64c7f5	0.8936761
146	0x3f7b14d5	0.9807866
147	0x3f788023	0.9707052
148	0x3f79042d	0.97271997
149	0x3f7d975e	0.99059093
150	0x3f72a8c6	0.9478878
151	0x3f6c4765	0.9229644
152	0x3f788947	0.9708447
153	0x3f713927	0.9422783
154	0x3f591485	0.84796935
155	0x3f72c57b	0.9483258
156	0x3f722c92	0.9459926
157	0x3f787dc2	0.9706689
158	0x3f78a5af	0.97127813
159	0x3f8d79a5	1.1052748
160	0x3f763088	0.961678
161	0x3f79ecff	0.9762725
162	0x3f4d714e	0.80251014
163	0x3f63b495	0.8894742
164	0x3f6f2838	0.93420744
165	0x3f4d9766	0.8030914
166	0x3f6c3107	0.9226231
167	0x3f8fc1d4	1.1231027
168	0x3f7a9874	0.97888875
169	0x3f77cf7e	0.9680098
170	0x3f449edd	0.76804906
171	0x3f7a1e49	0.9770246
172	0x3f7ad005	0.9797366
173	0x3f644055	0.8916066
174	0x3f6a80ef	0.9160299
175	0x3f8cf783	1.1013035
176	0x3f6acc0a	0.9171759
177	0x3f715a11	0.94278055
178	0x3f392bb4	0.7233231
179	0x3f662645	0.89902145
180	0x3f6971a6	0.9118904
181	0x3f65d9dc	0.8978555
182	0x3f736272	0.9507209
183	0x3f89f4c3	1.077782
184	0x3f72d4f6	0.948562
185	0x3f748a9b	0.95523995
186	0x3f4ddbb8	0.8041339
187	0x3f70caf6	0.94059694
188	0x3f6c540e	0.9231576
189	0x3f539bfd	0.82659894
190	0x3f77f5c0	0.9685936
191	0x3f8af821	1.0856973
192	0x3f7ac81d	0.979616
193	0x3f6dc7f6	0.9288324
194	0x3f40c70c	0.7530372
195	0x3f696e60	0.91184044
196	0x3f71739a	0.9431702
197	0x3f80a0b4	1.0049043
198	0x3f646336	0.89213884
199	0x3f8fc4a8	1.123189
200	0x3f71bfb3	0.94433135
201	0x3f63bfbd	0.88964444
202	0x3f454b0c	0.7706764
203	0x3f7995f6	0.9749445
204	0x3f70716c	0.9392307
205	0x3f720538	0.94539213
206	0x3f6f50c7	0.9348263
207	0x3f8bcc30	1.0921688
208	0x3f772bf6	0.96551454
209	0x3f778187	0.9668202
210	0x3f54101d	0.82837087
211	0x3f77a21b	0.9673173
212	0x3f7f9c1e	0.9984759
213	0x3f695aff	0.91154474
214	0x3f803eaf	1.001913
215	0x3f8a2196	1.07915
216	0x3f821c95	1.0164973
217	0x3f80de23	1.0067791
218	0x3f819908	1.0124826
219	0x3f7fab04	0.99870324
220	0x3f834283	1.0254673
221	0x3f7a9436	0.978824
222	0x3f88422a	1.0645192
223	0x3f67617f	0.9038314
224	0x3f79f111	0.97633463
225	0x3f7a7c0b	0.97845525
226	0x3f9c4086	1.2207191
227	0x3f71d661	0.9446774
228	0x3f777f91	0.96679026
229	0x3f77a568	0.96736765
230	0x3f76d79e	0.96422756
231	0x3f7e6a22	0.99380696
232	0x3f7f778f	0.99791807
233	0x3f649e1c	0.89303756
234	0x3f873bf3	1.056517
235	0x3f716a89	0.94303185
236	0x3f783759	0.96959454
237	0x3f794ee3	0.97385997
238	0x3f7af76e	0.980338
239	0x3f718ef6	0.94358766
240	0x3f712f04	0.94212365
241	0x3f75a954	0.959615
242	0x3f7651cd	0.9621857
243	0x3f3c1d7b	0.73482484
244	0x3f4dddf7	0.80416816
245	0x3f5f46d8	0.87217474
246	0x3f780398	0.96880484
247	0x3f63c220	0.88968086
248	0x3f66e7f2	0.9019767
249	0x3f77daad	0.9681805
250	0x3f7b7b67	0.9823517

base.feature_norm.bias f4 [251]
0	0xbb991555	-0.0046717324
1	0xbd0ffddf	-0.03515422
2	0xbc34b17a	-0.011028642
3	0x3bfef543	0.0077807023
4	0x3d0bda30	0.034143627
5	0xbc99b696	-0.018763822
6	0x3d04c7cd	0.032417107
7	0x3cb4a815	0.022052804
8	0x3cf86b36	0.03032456
9	0x3d35075e	0.04419648
10	0x3d519c8d	0.05117469
11	0x3d55a4fb	0.05215929
12	0x3cc2974b	0.023753783
13	0xbb15c1e6	-0.0022851168
14	0x39dc387a	0.00042003748
15	0x3d80a954	0.06282297
16	0x3d5f223c	0.054476008
17	0x3d3a642d	0.04550569
18	0x3c1f709e	0.00973144
19	0x3da5c95d	0.080950476
20	0x3d9ef3d5	0.07761351
21	0x3cefee69	0.029288488
22	0xbcc6e5a2	-0.02427942
23	0xbd47a21e	-0.04873859
24	0x3d7ad17f	0.061234947
25	0x3c911974	0.017712332
26	0x3d0d3199	0.034471128
27	0xbd02879b	-0.031867605
28	0x3d6b9d76	0.057523213
29	0x3dbc61c9	0.091983385
30	0x3ca12d5d	0.019674951
31	0x3cce5e23	0.025191372
32	0x3d65ff70	0.056151807
33	0x3c3bffc8	0.011474557
34	0xbd2d1d54	-0.042264298
35	0x3ba4023e	0.00500515
36	0xbc6023cf	-0.013680412
37	0x3d7ddcaa	0.06197802
38	0x3db8d286	0.09024529
39	0x3b226d83	0.0024784512
40	0x3d0dc924	0.03461565
41	0x3dd20eac	0.10256705
42	0x3d631765	0.055442233
43	0x3dc5a0a2	0.09649779
44	0xbc940e88	-0.018073335
45	0xbc78e878	-0.015192144
46	0x3d1de31e	0.038546674
47	0x3cb2b216	0.021813434
48	0x3c902176	0.01759408
49	0xbd12c7a9	-0.035834942
50	0x3d11d974	0.03560777
51	0x3d2f28f0	0.04276365
52	0x3d43285f	0.047645923
53	0x3daa85c9	0.08326299
54	0x3d520b93	0.05128057
55	0x3d77a470	0.060459554
56	0xbb9d6136	-0.004802848
57	0x3d1cb7da	0.038261272
58	0xbaa5caa7	-0.0012648896
59	0x3d674c0b	0.056469005
60	0x3d080922	0.033211835
61	0x3e0c9b85	0.13731201
62	0x3cecc37d	0.02890181
63	0x3b273b0c	0.0025517372
64	0x3bf0c69d	0.0073478953
65	0x3d11bc46	0.035579942
66	0xbc7e0da1	-0.015506179
67	0xbc04443f	-0.008072912
68	0x3c302f5f	0.010753482
69	0x3ddc54e6	0.107583806
70	0x3cc09750	0.023509651
71	0xbcd1395f	-0.025540052
72	0x3d8ddbe7	0.06926709
73	0x3d4cfa21	0.05004323
74	0x3d26d8df	0.04073417
75	0x3c6686b1	0.014070199
76	0x3c859dd7	0.016310615
77	0x3b4ff05e	0.0031728963
78	0x3d6b97fc	0.05751799
79	0x3ca26149	0.01982178
80	0xbccd0efe	-0.025031563
81	0x3db28f6e	0.08718763
82	0x3bdcbb6e	0.0067362105
83	0x3d8723db	0.06598636
84	0x3cd6951d	0.02619415
85	0xb9acb582	-0.0003294163
86	0x3d1b7a5a	0.03795848
87	0x3c9a35e0	0.018824518
88	0xbcb0ad72	-0.02156708
89	0xbc4e0652	-0.012574749
90	0x3d660b6c	0.056163236
91	0x3da29db8	0.07940239
92	0x3c858db3	0.016302919
93	0xbc8aef11	-0.016959699
94	0x3ca07c73	0.019590592
95	0x3b1bf189	0.002379509
96	0x3d5a6ef0	0.053328454
97	0x3d131d98	0.035916895
98	0x3c4c12b1	0.012455628
99	0x3d362884	0.044472232
100	0x3b6f2175	0.0036488448
101	0x3cc695e3	0.024241393
102	0xbca12982	-0.019673113
103	0x3d78d486	0.060749553
104	0x3ce0748d	0.027399326
105	0x3cc56862	0.024097625
106	0x3cdb617f	0.026779888
107	0x3cd17cb5	0.02557216
108	0x3cadc4e8	0.021212056
109	0x3d746530	0.059666812
110	0xbbfd60e7	-0.007732499
111	0x3d14fd53	0.0363744
112	0x3d45681d	0.048194993
113	0x3cfbd4f8	0.0307412
114	0x3d47994a	0.048730172
115	0xbccaf6b6	-0.024775844
116	0x3d5cf0f0	0.053940713
117	0xbc0b2af0	-0.008494124
118	0x3d28aadb	0.041178565
119	0x3d01d0a0	0.0316931
120	0x3d40b72f	0.047049697
121	0x3caba876	0.020954352
122	0x3c88f8a3	0.016720122
123	0x3d73a21d	0.059480775
124	0x3cae6c03	0.021291738
125	0xbc596efd	-0.013271091
126	0x3dc3492a	0.09535439
127	0x3c65e240	0.014030993
128	0xbbbb1b33	-0.0057100295
129	0x3d2062e2	0.039156802
130	0x3d8d9ead	0.06915031
131	0x3ccd38d6	0.025051516
132	0xbd346e22	-0.044050343
133	0x3d26fe8f	0.04077011
134	0x3cfe97ff	0.031078337
135	0x3d0aaa7f	0.033854004
136	0x3d8734bd	0.06601856
137	0xbcd03c75	-0.025419453
138	0x3ddb8c99	0.10720176
139	0x3cb6e80f	0.022327451
140	0x3ca70c60	0.020391643
141	0xbcc0a072	-0.023514006
142	0x3d0615bf	0.032735582
143	0x3dd05656	0.10172717
144	0xbd07c60f	-0.033147868
145	0x3d649939	0.055810187
146	0xbb612d8a	-0.0034359419
147	0x3c6a4461	0.014298529
148	0x3cf3b84e	0.02975097
149	0xbc188779	-0.009309643
150	0x3dba1725	0.09086446
151	0x3cd90900	0.02649355
152	0x3c0936ed	0.008374912
153	0x3d718719	0.05896673
154	0x3bd41e43	0.006473334
155	0xbcefeea7	-0.029288603
156	0xbd1f36ae	-0.038870506
157	0x3bb0df77	0.005397733
158	0xbbd907b9	-0.006623235
159	0xbb419935	-0.0029540781
160	0x3d4301a2	0.04760898
161	0xbbc0fe17	-0.005889665
162	0xbc6b8106	-0.014374023
163	0xbd49a719	-0.049231622
164	0xbd438301	-0.047732357
165	0x3dd7c2f0	0.10535228
166	0xbb9c62e4	-0.004772531
167	0x3ca619b9	0.020275937
168	0x3d5f3030	0.054489315
169	0x3c8ba984	0.017048605
170	0x3c418d2b	0.011813442
171	0x3b5e64c8	0.0033934582
172	0xbd3397d1	-0.043845955
173	0x3daabdf2	0.083370104
174	0x3c5c1049	0.013431617
175	0x3be134a9	0.0068727327
176	0x3dc897c0	0.09794569
177	0x3d14fe77	0.03637549
178	0xbc8e9a9b	-0.017407706
179	0xbdad46b6	-0.08460753
180	0xbccd25e4	-0.025042482
181	0x3cf09bab	0.029371103
182	0xbd1b995d	-0.037988055
183	0x3cd5475e	0.026035007
184	0x3d58097c	0.05274342
185	0x3d80227e	0.06256579
186	0x3b39065c	0.002823255
187	0xbd0d8530	-0.034550846
188	0xbddb3c8b	-0.10704907
189	0xbc6111cd	-0.013737154
190	0x3c45005d	0.012024012
191	0xbd54dcca	-0.051968373
192	0xbbc80556	-0.0061041517
193	0x3d7c3d16	0.061581694
194	0xbd21dac9	-0.03951529
195	0xbd15394e	-0.036431603
196	0xbd6448b6	-0.055733405
197	0x39cb3131	0.00038755828
198	0xbd239d89	-0.03994516
199	0xbc33bcac	-0.010970276
200	0x3dc266fc	0.09492299
201	0x3da81c0e	0.08208476
202	0xbd873ef6	-0.06603806
203	0xbcdbffd8	-0.026855394
204	0xbc846e32	-0.016165826
205	0x3b571ed9	0.0032824783
206	0xbd8e6786	-0.06953339
207	0xbc7f33cf	-0.015576317
208	0x3d627631	0.055288497
209	0x3cec4cac	0.028845154
210	0xbccc7edd	-0.024962837
211	0xbd4b3d7d	-0.049619187
212	0xbcc8de11	-0.024519952
213	0x3cc4de51	0.02403179
214	0x3d214265	0.03936996
215	0xbd19eb22	-0.037577756
216	0x3a0290d9	0.00049806904
217	0x3bcb48c6	0.0062037436
218	0x3d5f8e2a	0.054578938
219	0x3cc8d26e	0.024514403
220	0x3d59dc1c	0.05318843
221	0x3b7538e0	0.0037417933
222	0x3d35e2af	0.044405635
223	0x3d21d09f	0.039505597
224	0x3c36857f	0.011140226
225	0x3abb8cf7	0.0014308979
226	0xbd2277dd	-0.03966509
227	0x3d384021	0.044983033
228	0x3d26cfc3	0.04072548
229	0xbc9dd34d	-0.019265795
230	0x3d592f61	0.0530237
231	0x3d46218f	0.048371848
232	0x3d4869b5	0.048928935
233	0x3da9d7cc	0.08293113
234	0x3d11ea6d	0.035623956
235	0x3d4cc644	0.04999377
236	0xba6da837	-0.00090658985
237	0x3cd25a7f	0.025677918
238	0x3ce29751	0.027660044
239	0x3d652e18	0.05595216
240	0x3dadbdb9	0.08483452
241	0x3cd42b90	0.025899678
242	0x3ca9f75c	0.020747833
243	0x3be238c9	0.006903742
244	0xbc77759d	-0.015103725
245	0x3da332e2	0.079686895
246	0xbbedd6bb	-0.007258264
247	0x3bdd980f	0.0067625116
248	0xbca43de2	-0.02004904
249	0x3d8f6854	0.07002321
250	0xbc4d8693	-0.012544292

base.mlp.fc1.0.weight f4 [64, 251]
0	0x3e092415	0.1339267
1	0xbc4349d6	-0.011919459
2	0x3b26d18c	0.002545449
3	0x3d0efb43	0.03490759
4	0x3dd1432b	0.102178894
5	0x3df9a8bc	0.12190387
6	0xbcba21dd	-0.022721225
7	0x3de5d793	0.11222758
8	0x3d538831	0.051643554
9	0x3d6c5e83	0.05770732
10	0xbcd4b68d	-0.025965953
11	0xbcfd3b51	-0.030912073
12	0x3d2a66f6	0.041602097
13	0xbe08712b	-0.1332442
14	0x3cd06e79	0.025443302
15	0x3c1b32ae	0.009472532
16	0xbd42058f	-0.047368582
17	0x3dbe0ff2	0.09280385
18	0xbcc636c1	-0.02419603
19	0x3e567a2c	0.20945042
20	0x3d949475	0.072548784
21	0xbdb4b148	-0.08822876
22	0xbda7a8c8	-0.08186489
23	0x3d82dede	0.06390165
24	0x3e0ccf7e	0.13751027
25	0x3d5e654c	0.054295823
26	0x3d3a63f0	0.045505464
27	0x3d809938	0.06279224
28	0x3d5f19ef	0.05446809
29	0xbe3226cb	-0.17397611
30	0xbe0701b4	-0.13184243
31	0x3dc0c9d4	0.09413496
32	0x3d7746cd	0.060370255
33	0x3d83f320	0.06442857
34	0x3e3beb76	0.1835154
35	0x3e21942f	0.15779184
36	0x3e0ee806	0.13955697
37	0x3d8ac5a1	0.06775976
38	0xbcf7baa1	-0.030240359
39	0xbd97f66c	-0.07420048
40	0xbe84b7b7	-0.25921413
41	0x3da7d171	0.08194245
42	0xbd02f9e4	-0.031976596
43	0xbe0f77bd	-0.1401052
44	0xbe146206	-0.14490518
45	0xbc2a04c3	-0.010377112
46	0x3c100e39	0.008792453
47	0xbd823597	-0.06357878
48	0x3e67b72b	0.22628467
49	0xbd464447	-0.048404958
50	0x3ca36de4	0.01994986
51	0x3dc0f3f3	0.094215296
52	0xbda63741	-0.081160076
53	0x3d71f08d	0.059067298
54	0x3d89fce7	0.067376904
55	0x3b372bd6	0.0027949712
56	0xbd48266e	-0.048864774
57	0xbcc8c5cb	-0.024508378
58	0xbe089cd9	-0.13341083
59	0xbd17cc5c	-0.037060127
60	0x3dd66987	0.104693465
61	0x3d2a0ecf	0.04151803
62	0x3c93bae7	0.018033458
63	0x3ddd599f	0.108081095
64	0x3cf0436e	0.029329028
65	0xbdde813c	-0.10864493
66	0x3c16744a	0.009182999
67	0xbcd76d67	-0.026297284
68	0x3dd034f9	0.10166354
69	0x3d5029f7	0.05082127
70	0x3de7fee9	0.11327917
71	0xbe73ab77	-0.23795877
72	0x3a93b31e	0.0011268591
73	0x3e3396c7	0.17537986
74	0xbdd469f4	-0.103717715
75	0xbcae97e2	-0.021312658
76	0xbb000b63	-0.0019538037
77	0x3e0d236a	0.1378304
78	0x3da30801	0.07960511
79	0xbbf3475f	-0.0074242796
80	0x3cbed44e	0.023294594
81	0x3cdc03ed	0.02685734
82	0xbd4e31ac	-0.05034034
83	0x3b732010	0.0037097968
84	0xb9a32b49	-0.00031122033
85	0xbd8ab63b	-0.06773039
86	0x3d2ac01d	0.04168712
87	0xbd77cd64	-0.06049861
88	0xbd02d0b5	-0.03193732
89	0x3d9ea377	0.07746022
90	0x3e1aa28f	0.15101074
91	0x3ab8a341	0.0014086739
92	0xbd63d5fd	-0.055623997
93	0xbd186458	-0.03720507
94	0xbdf92eb8	-0.12167114
95	0x3d77b145	0.06047179
96	0x3dd3f350	0.103491426
97	0x3d9fca60	0.07802272
98	0xbdf28921	-0.118425615
99	0xbd7e898e	-0.0621429
100	0x3d2f3413	0.04277427
101	0xbc311751	-0.010808782
102	0x3dad9199	0.08475036
103	0x3cffa9f5	0.031208972
104	0x3dc8a183	0.09796431
105	0x3e140aa4	0.14457184
106	0xbd6acb17	-0.057322588
107	0x3da55aa8	0.08073932
108	0x3d5248ed	0.05133908
109	0xbe2d9cbc	-0.1695432
110	0x3d456168	0.048188597
111	0xbd3f614d	-0.046723653
112	0xbdeda430	-0.11603582
113	0xbc7ef32c	-0.015560906
114	0xbd133dd1	-0.035947625
115	0xbd37f24b	-0.044908803
116	0x3d0426af	0.032263454
117	0x3e1ebcee	0.15501758
118	0x3ccc1ba3	0.024915522
119	0x3bfe9fbd	0.007770507
120	0xbcc3a2dd	-0.02388137
121	0x3dd9fa60	0.10643458
122	0x3de1b096	0.11020009
123	0x3d871af2	0.06596936
124	0x3d50382e	0.050834827
125	0xbdc3fd7d	-0.095698334
126	0xbd3c7bf8	-0.046016663
127	0x3d3d0c0a	0.04615406
128	0xbdacd16d	-0.08438382
129	0x3d86959f	0.06571507
130	0xbe0143a0	-0.12623453
131	0x3dc5d2b4	0.09659329
132	0xbd63443e	-0.055485003
133	0xbc849561	-0.01618451
134	0x3daa4bcb	0.083152376
135	0xbd00c62c	-0.03143899
136	0xba783ea2	-0.0009469782
137	0x3e6f6413	0.23378019
138	0x3da1ee59	0.07906789
139	0xbd175654	-0.036947563
140	0x3db38cbe	0.08767079
141	0x3dd4063b	0.10352751
142	0x3e2726cc	0.16323394
143	0xbcb340fc	-0.021881573
144	0x3d93921f	0.07205605
145	0x3e2b80e9	0.16748394
146	0xbd28a1b8	-0.041169852
147	0x3d20c9a5	0.039254803
148	0x3d53ac1a	0.0516778
149	0x3e329b8d	0.1744215
150	0x3de1e41d	0.11029837
151	0xbd4de2c5	-0.050265092
152	0x3e103e89	0.14086355
153	0xbb953613	-0.0045535653
154	0x3d71a17e	0.0589919
155	0xbdfd881e	-0.12379478
156	0x3c3dc633	0.011582899
157	0x3de4dd64	0.111750394
158	0xbe3897a2	-0.18026593
159	0x3ba7e339	0.0051235226
160	0xbd8226b2	-0.06355037
161	0x3e2897cf	0.1646416
162	0xbb9c6e86	-0.0047739176
163	0xbd44353c	-0.04790233
164	0xbe8680b4	-0.26270068
165	0xbd13a131	-0.036042396
166	0xbe236831	-0.15957715
167	0x3dbb5090	0.091462255
168	0xbda39a30	-0.07988393
169	0xbd40403b	-0.046936255
170	0x3dac8190	0.084231496
171	0x3ce86c46	0.028371941
172	0xbcbdc480	-0.023164988
173	0x3e4d1345	0.20026882
174	0xbe17d145	-0.14825924
175	0xbc949f38	-0.018142328
176	0xbe0b5e01	-0.13610078
177	0xbd870392	-0.06592478
178	0xbd28dd9e	-0.041226976
179	0x3d241c5e	0.040066116
180	0xbd7e9534	-0.06215401
181	0x3daf232b	0.0855163
182	0xbd9579da	-0.07298632
183	0x3d8dbd30	0.0692085
184	0xbb8ef88e	-0.004363126
185	0xbd3e680d	-0.04648595
186	0xbdc8efd2	-0.09811367
187	0xbb95f0f0	-0.004575841
188	0xbc8fd277	-0.017556412
189	0x3b4ea287	0.003152998
190	0xbdb86f7d	-0.0900564
191	0x3e006afa	0.12540808
192	0x3e3c60bc	0.18396276
193	0x3d47b7fb	0.04875944
194	0xbdee27d4	-0.1162869
195	0xbe215d19	-0.1575817
196	0xbd55912f	-0.05214041
197	0xbd308b7e	-0.04310178
198	0x3ce95728	0.028483942
199	0x3d8ee53e	0.06977318
200	0x3c5c2645	0.013436859
201	0x3e1159be	0.1419439
202	0xbc106525	-0.008813177
203	0xbc9dfe0e	-0.019286182
204	0x3d93dcfb	0.07219883
205	0x3db081c9	0.086185046
206	0xbe09829e	-0.13428733
207	0xbc079d00	-0.008277178
208	0x3dd82af1	0.105550654
209	0x3db76af1	0.08955944
210	0x3dd24f89	0.102690764
211	0x3d1bab2f	0.03800505
212	0xbdea0f8c	-0.114287466
213	0xbe4c027c	-0.19922823
214	0xbdc05ea7	-0.093930535
215	0xbe5e394a	-0.21701542
216	0x3cd84070	0.026397914
217	0x3d08b942	0.0333798
218	0xbd72e7bb	-0.059303027
219	0x3b8cc76e	0.004296235
220	0x3d8775cc	0.06614265
221	0xbcdd93d8	-0.027048036
222	0x3bf6d36a	0.0075325267
223	0xbc608350	-0.013703182
224	0xbabe4a01	-0.0014517904
225	0x3d2f35a4	0.042775765
226	0x3e0a25b0	0.13490939
227	0x3db059ac	0.086108536
228	0xbd04de0c	-0.032438323
229	0xbd449f98	-0.048003763
230	0xbd8e39ff	-0.069446556
231	0xbd822aec	-0.06355843
232	0x3d7362f9	0.05942056
233	0xbd83ce48	-0.064358294
234	0xbc84243d	-0.016130561
235	0xbca97fe5	-0.020690868
236	0xbd0f3af2	-0.034968324
237	0x3c4211f1	0.011845098
238	0x3d701492	0.058613367
239	0x3d669d09	0.056302104
240	0xbdebd5dc	-0.115154
241	0x3b61360f	0.0034364497
242	0x3de116bf	0.109906666
243	0xbcd71989	-0.026257293
244	0xbdc0fa9a	-0.094227985
245	0xbdf80930	-0.121111274
246	0x3da550b6	0.08072035
247	0x3d9b9607	0.07596975
248	0x3da096ff	0.078413
249	0x3a1dc891	0.00060189614
250	0x3d669cf1	0.056302015
251	0xbe740aa9	-0.23832192
252	0xbe0a9d3d	-0.13536544
253	0x3c18e827	0.009332693
254	0xbe0dae79	-0.13836087
255	0xbe06489b	-0.13113634

base.mlp.fc1.0.bias f4 [64]
0	0xbd0568ff	-0.032570835
1	0x3d219944	0.039452806
2	0xbd0cb1e2	-0.03434933
3	0x3d3e7556	0.04649862
4	0xbbc784ad	-0.006088814
5	0x3d4190b3	0.047257137
6	0x3c489e05	0.012244706
7	0x3cca532b	0.02469786
8	0xbc33b552	-0.010968523
9	0xbc313926	-0.010816848
10	0x3b90dcfd	0.004420875
11	0x3c59fa6b	0.013304333
12	0x3d7e0142	0.06201292
13	0x3d2a372b	0.04155652
14	0xbd46bdd7	-0.04852089
15	0x3cedc1e5	0.02902312
16	0x3c0a59ae	0.008444233
17	0x3c9abc5f	0.01888865
18	0x3daa2955	0.08308665
19	0x3b90c5db	0.0044181175
20	0xbd86290c	-0.06550798
21	0xbd423c58	-0.04742083
22	0xbcd132d4	-0.025536932
23	0x3b087e42	0.0020827209
24	0xbcf2550b	-0.029581567
25	0x3ca6b953	0.020352041
26	0x3d0afeca	0.033934392
27	0xbc4ffc85	-0.012694483
28	0x3bb61afd	0.0055574165
29	0xbd83acbd	-0.064294316
30	0x3c9dbaf4	0.019254185
31	0x3b790043	0.003799454
32	0xba28f04a	-0.0006444497
33	0xba00f607	-0.00049194734
34	0x3c8e3cec	0.017363034
35	0x3d62e252	0.055391617
36	0x3c574d47	0.013140983
37	0x3c907c90	0.017637521
38	0x3cad4c85	0.021154651
39	0x3cafe7e9	0.021472888
40	0xbd132d3b	-0.035931807
41	0x3d017903	0.031609546
42	0x3b2911b6	0.002579791
43	0x3d3fce2f	0.04682749
44	0x3cfd2758	0.03090255
45	0xbccda823	-0.025104588
46	0x3d5e6ecc	0.054304883
47	0xbbe75e13	-0.007060775
48	0xbc80491c	-0.015659861
49	0xbdb48fbe	-0.08816479
50	0x3d2d7a86	0.042353176
51	0xbcd6f27c	-0.026238672
52	0x3c8b126f	0.016976563
53	0x3c86ddce	0.016463187
54	0x3bce3bcc	0.0062937494
55	0x3dab31c5	0.08359102
56	0x3c0b347d	0.008496401
57	0x3c6e78ad	0.014555139
58	0x3d1e07bd	0.0385816
59	0xbc4abbff	-0.012373923
60	0x3d0575ec	0.032583162
61	0x3c109531	0.0088246325
62	0xbce120c1	-0.027481439
63	0xbce9a7e5	-0.028522441

base.mlp.fc1.2.weight f4 [64]
0	0x3f6a1dd2	0.9145175
1	0x3f8389e6	1.0276458
2	0x3f736de9	0.95089585
3	0x3f865a55	1.0496317
4	0x3f80cc7c	1.0062404
5	0x3f90eff1	1.1323224
6	0x3f698f72	0.91234505
7	0x3f8a075f	1.07835
8	0x3f814da2	1.0101817
9	0x3f6f1e46	0.9340557
10	0x3f807215	1.0034815
11	0x3f7b08bd	0.9806021
12	0x3f81a4d1	1.0128423
13	0x3f7dd294	0.9914944
14	0x3f806510	1.0030842
15	0x3f8f3a70	1.1189709
16	0x3f81b2d1	1.0132695
17	0x3f7c5e5e	0.9858149
18	0x3f7f8221	0.99807936
19	0x3f7e3f86	0.9931568
20	0x3f7e2a6e	0.9928349
21	0x3f7e28a1	0.99280745
22	0x3f774fc0	0.96606064
23	0x3f637081	0.8884354
24	0x3f7909f4	0.9728081
25	0x3f7fce10	0.999238
26	0x3f7f1e46	0.9965557
27	0x3f7f20fb	0.996597
28	0x3f77e197	0.968286
29	0x3f806e84	1.0033727
30	0x3f70c957	0.9405722
31	0x3f9fde7c	1.2489772
32	0x3f8e115e	1.109905
33	0x3f7cd0b7	0.98755974
34	0x3f630bdb	0.88689965
35	0x3f81f495	1.0152766
36	0x3f843023	1.032719
37	0x3f873d7b	1.0565637
38	0x3f6f3a62	0.9344846
39	0x3f730a7d	0.9493788
40	0x3f7765bd	0.96639615
41	0x3f7b0041	0.9804726
42	0x3f73b58b	0.9519889
43	0x3f999edf	1.2001609
44	0x3fa10c80	1.258194
45	0x3f815ac0	1.010582
46	0x3f8103ab	1.0079244
47	0x3f804380	1.0020599
48	0x3f752f2e	0.95775115
49	0x3f818652	1.0119116
50	0x3f87a29e	1.0596502
51	0x3f7d0b26	0.98845136
52	0x3f847dfd	1.0350949
53	0x3f81582f	1.0105036
54	0x3f758cd5	0.9591802
55	0x3f88cdbd	1.0687786
56	0x3f6f2776	0.9341959
57	0x3f66c5b5	0.90145427
58	0x3f8750c9	1.0571529
59	0x3f7073e5	0.9392684
60	0x3f7c5cbf	0.9857902
61	0x3f82871a	1.019748
62	0x3f6c2ba7	0.9225411
63	0x3f78e517	0.97224563

base.mlp.fc1.2.bias f4 [64]
0	0x3c698351	0.0142525
1	0x3bd6d9db	0.006556732
2	0xbc77ce68	-0.015124895
3	0x3c67abe8	0.014140107
4	0x3b099602	0.0020993953
5	0xbc187362	-0.009304853
6	0x3d4c8032	0.049926944
7	0x3ceca7e4	0.02888865
8	0xbca0fac8	-0.019650832
9	0x3c80b96b	0.015713414
10	0x3ab8b34b	0.0014091519
11	0xbc025961	-0.00795588
12	0x3cedff56	0.029052418
13	0x3c2a60f7	0.010399095
14	0x3c257082	0.010097625
15	0x3c342082	0.010994079
16	0xbb5b7f1a	-0.0033492506
17	0x3ca01dc7	0.019545449
18	0x3c2c7430	0.010525748
19	0xbc8549ec	-0.0162706
20	0xbcac8de6	-0.021063756
21	0xbca6bf13	-0.020354783
22	0xbc947132	-0.018120382
23	0x3d633e12	0.055479117
24	0xbc5e845c	-0.013581362
25	0x3c684d21	0.014178545
26	0xbb30e5ae	-0.0026992369
27	0xbb31bc4c	-0.002712029
28	0xbcc0cd47	-0.023535384
29	0xbcb6dcea	-0.022322137
30	0xbb3088b2	-0.0026936946
31	0xbcde8bea	-0.027166326
32	0x3c2324d6	0.009957513
33	0x3ca951d1	0.020668896
34	0x3d106585	0.035253067
35	0x3c7ef994	0.015562434
36	0xbccc3c08	-0.024930969
37	0xbd2c000b	-0.04199223
38	0x3cd669fa	0.02617358
39	0x3d031eca	0.032011785
40	0x3d0232d7	0.031786766
41	0x3c3b6c06	0.011439329
42	0xbc94662f	-0.018115131
43	0xbce18d03	-0.02753306
44	0x3c67fd8a	0.0141595695
45	0xbc82effa	-0.01598357
46	0x3d90267c	0.0703859
47	0xbc72e3f4	-0.014824856
48	0xb995b999	-0.00028557776
49	0xbd0d6694	-0.034521654
50	0xbcab599b	-0.02091675
51	0xbb6f3a36	-0.0036503202
52	0xbcdef47d	-0.02721619
53	0xbc4cde45	-0.012504165
54	0x3d52b2d7	0.051440086
55	0x3d4a08af	0.049324688
56	0xbc831320	-0.01600033
57	0x3b20325c	0.002444408
58	0xbc9cdb92	-0.019147668
59	0x3d0a2b56	0.033732735
60	0x3c18bdba	0.009322578
61	0xbd2a4267	-0.041567232
62	0x3c8e2a9e	0.017354306
63	0xbd2cd00a	-0.04219059

base.mlp.fc_h.0.weight f4 [64, 64]
0	0xbd82525c	-0.06363365
1	0xbe1900ec	-0.14941758
2	0x3d35e92c	0.044411823
3	0x3e27713b	0.16351788
4	0x3e253962	0.16135171
5	0xbb7b5789	-0.0038351736
6	0xbe408c97	-0.18803631
7	0xbd6784f4	-0.05652328
8	0xbe70f8aa	-0.23532358
9	0xbda27742	-0.07932903
10	0x3c518ca8	0.012789883
11	0x3d2f48ec	0.042794153
12	0x3ec4c441	0.3843098
13	0x3e2d3af2	0.16917017
14	0x3dbded04	0.09273723
15	0x3e19afd5	0.15008481
16	0x3e4d0f3e	0.20025346
17	0xbd8f77d4	-0.07005277
18	0x3e278cd8	0.16362321
19	0xbe534be6	-0.20634422
20	0xbe1865db	-0.14882605
21	0x3e404dbb	0.18779652
22	0x3d3f0bc8	0.046642095
23	0x3d8f2845	0.06990103
24	0x3d3f0d70	0.046643674
25	0x3e24a5d8	0.1607889
26	0x3e6c0fb1	0.23052861
27	0x3e82611a	0.25464708
28	0xbdcac1bf	-0.099002354
29	0x3dd05f50	0.101744294
30	0xbe13115a	-0.14362088
31	0xbed5ad62	-0.41733843
32	0x3e44987d	0.19198795
33	0xbe14e229	-0.14539398
34	0xbd1e0ec6	-0.038588308
35	0x3dc2a13c	0.09503409
36	0xbdfd3a11	-0.12364591
37	0xbd63ba4a	-0.05559758
38	0xbe44b5a6	-0.19209918
39	0xbdc21c0e	-0.09478007
40	0x3dfe11eb	0.12405761
41	0x3ce37dc6	0.027769934
42	0xbddf74a6	-0.10910921
43	0xbe2d666f	-0.16933607
44	0xbde8f84f	-0.11375486
45	0xbe3817a1	-0.17977764
46	0x3e8a7f56	0.27050275
47	0xbcbe3995	-0.023220817
48	0xbe57f623	-0.21089987
49	0x3dc3c48a	0.09558971
50	0xbe818b85	-0.25301757
51	0x3c572a38	0.013132624
52	0xbdb39d60	-0.08770251
53	0xbea2ab93	-0.31771526
54	0x3e6837ff	0.22677611
55	0x3ed11d9b	0.408429
56	0x3e7eb47b	0.24873535
57	0x3e552374	0.20814306
58	0x3dbecfe3	0.09316995
59	0xbda2a6cd	-0.07941971
60	0x3d53b27b	0.051683884
61	0xbe9aaeab	-0.30211386
62	0xbe921c30	-0.2853713
63	0xbe133167	-0.14374314
64	0xbeba8810	-0.36431932
65	0x3eba8861	0.36432174
66	0xbde0ecf0	-0.10982692
67	0x3ed88e5c	0.42296112
68	0x3e68e938	0.22745216
69	0x3e50d8e0	0.20395231
70	0x3e7fcb27	0.2497984
71	0x3de028f4	0.10945311
72	0xbe5446bc	-0.20730108
73	0xbdadb3fb	-0.08481594
74	0xbd9660c5	-0.07342676
75	0xbe1856ee	-0.14876911
76	0x3da012ff	0.07816123
77	0x3e925e05	0.28587356
78	0xbd92951b	-0.07157346
79	0xbc325358	-0.0108841285
80	0x3d8937dd	0.06700108
81	0x3e1ccc33	0.15312271
82	0xbe9e787b	-0.30951294
83	0xbdcbd282	-0.099522606
84	0xbdb21f36	-0.08697359
85	0xbe0e0156	-0.13867697
86	0xbcafaf4a	-0.021445889
87	0x3dafec47	0.08589988
88	0x3de7d25b	0.11319419
89	0x3d92eeb1	0.07174433
90	0x3e71e55e	0.23622653
91	0xbe37b779	-0.17941083
92	0xbe82d48c	-0.25552785
93	0xbd9021f8	-0.07037729
94	0x3daa5162	0.08316304
95	0xbbb19199	-0.005418968
96	0x3a5d97fe	0.00084531296
97	0xbd6dfaf2	-0.05810065
98	0x3e978225	0.2959148
99	0x3dae543a	0.08512159
100	0x3dbc0d7f	0.09182262
101	0xbe82858a	-0.25492507
102	0x3d76dad3	0.06026728
103	0xbdd7d697	-0.10538977
104	0xbddb6b20	-0.10713792
105	0xbdbaa86d	-0.09114156
106	0xbdcfd084	-0.10147193
107	0xbceda0e3	-0.02900738
108	0xbd203c90	-0.039120257
109	0x3dbc01f9	0.09180064
110	0x3ccf4876	0.025303107
111	0x3e920159	0.28516653
112	0xbdab5939	-0.08366627
113	0x3dabf3b7	0.08396094
114	0x3e96cc5f	0.29452798
115	0xbeebfe71	-0.4609256
116	0x3e286d9d	0.16448064
117	0xbd3605bc	-0.044439062
118	0x3df244b4	0.1182951
119	0xbe836f63	-0.2567092
120	0x3df7e51c	0.12104246
121	0x3e37da68	0.17954409
122	0xbe6a266d	-0.22866221
123	0xbd646ee1	-0.055769805
124	0xbbc13194	-0.0058958028
125	0x3d0a3207	0.033739116
126	0x3e09bf68	0.13451922
127	0xbce4eacd	-0.027943993
128	0xbd82fb81	-0.06395627
129	0x3dc13bd6	0.09435241
130	0xbe4ee13d	-0.20203109
131	0xbbc49e73	-0.006000334
132	0x3c354601	0.0110640535
133	0x3e4e6c2f	0.20158456
134	0x3d4c2e73	0.049848985
135	0xbe27738d	-0.16352673
136	0x3e66a9fa	0.22525778
137	0x3e88d1b3	0.26722488
138	0x3ec6d50b	0.38834414
139	0x3e90e5c1	0.28300288
140	0xbd9d04fe	-0.07666968
141	0x3e279dad	0.16368742
142	0xbe35b813	-0.17746
143	0x3d4dacba	0.050213553
144	0xbe0f08ed	-0.13968249
145	0xbea3985b	-0.31952175
146	0xbea23bb5	-0.31686178
147	0x3c728caa	0.014804045
148	0xbd8d89e5	-0.06911067
149	0x3bc8b1e0	0.00612472
150	0xbd9118e4	-0.07084826
151	0xbdb92138	-0.09039539
152	0x3c90da99	0.01768236
153	0xbe891ee2	-0.26781374
154	0x3d84346c	0.06455311
155	0xbdc7c8ce	-0.09755097
156	0xbd9a8e42	-0.07546665
157	0xbe93717c	-0.2879752
158	0xbd634486	-0.05548527
159	0x3dc6e383	0.09711363
160	0x3e39a378	0.18128765
161	0x3d82b764	0.06382635
162	0x3e0d24b1	0.13783528
163	0xbde29220	-0.110630274
164	0xbe48c671	-0.1960695
165	0x3ec911e3	0.3927146
166	0xbeb089fb	-0.3448027
167	0x3e325a43	0.17417245
168	0x3ce91bef	0.028455703
169	0xbe8a76dd	-0.2704381
170	0x3da41a02	0.08012773
171	0xbbfe334a	-0.007757579
172	0x3e8a81a2	0.27052027
173	0xbdec8526	-0.115488335
174	0xbdf7146d	-0.12064443
175	0x3e19c3a3	0.15016036
176	0x3d87a26a	0.06622775
177	0xbe95c2a7	-0.2925007
178	0xbcedfe24	-0.029051848
179	0xbc3d3ad7	-0.011549673
180	0x3db1ff55	0.08691279
181	0xbd038156	-0.032105766
182	0xbbf29e45	-0.007404121
183	0x3e8f9955	0.2804667
184	0x3e51b35d	0.20478578
185	0x3e5a79f8	0.2133559
186	0xbe30c988	-0.17264378
187	0xbda3922b	-0.07986864
188	0x3dfae155	0.1225001
189	0x3d8f5d20	0.07000184
190	0xbe955c17	-0.2917182
191	0xbdbb3cdd	-0.09142468
192	0x3ec1a7c2	0.37823302
193	0xbe3bb64f	-0.18331264
194	0xbdabb342	-0.083838
195	0x3bca80d3	0.006179908
196	0x3e336a55	0.17521031
197	0xbe48f8cf	-0.19626163
198	0x3b5ad90b	0.0033393528
199	0xbd53c387	-0.05170014
200	0xbddd59bb	-0.1080813
201	0xbda41cb3	-0.080132864
202	0x3e1013ab	0.14070003
203	0xbe031a1a	-0.12802926
204	0x3e282a85	0.1642247
205	0x3cc261c4	0.023728259
206	0xbc17b67b	-0.009259815
207	0x3eab7083	0.33484277
208	0x3d424362	0.047427543
209	0xbda8c12b	-0.08239969
210	0xbe407e8d	-0.18798275
211	0xbcfc34dc	-0.030786924
212	0xbef08d4a	-0.46982795
213	0xbeb67202	-0.35633856
214	0xbe5eb010	-0.2174685
215	0x3e497db0	0.19676852
216	0xbe16ad82	-0.14714625
217	0xbd318ebc	-0.043349013
218	0xbbca60a7	-0.0061760726
219	0xbe5d51fb	-0.21613304
220	0x3c874846	0.016513955
221	0xbe6ea37d	-0.23304553
222	0xbdfff4ab	-0.124978386
223	0xbd231280	-0.039812565
224	0xbeef8fe1	-0.46789458
225	0xbd676036	-0.05648824
226	0x3dec549a	0.11539574
227	0xbe67b20d	-0.22626515
228	0x3e6e76c2	0.2328749
229	0xbe12fd9e	-0.1435456
230	0x3e0fa608	0.1402818
231	0xbd11e43a	-0.035618044
232	0x3dd092f5	0.1018428
233	0x3d272354	0.040805176
234	0x3dd50932	0.104021445
235	0xbe0d0af2	-0.13773707
236	0x3e6d1daa	0.23155847
237	0x3e00268f	0.12514709
238	0xbdd1c662	-0.10242917
239	0x3c462a17	0.012094996
240	0x3e84ff4e	0.25976032
241	0x3ec205a2	0.37894922
242	0xbe499ea1	-0.19689418
243	0xbce1f47e	-0.027582403
244	0x3d88f3b1	0.066871054
245	0xbce62242	-0.028092507
246	0xbe467cc5	-0.19383533
247	0x3da61c90	0.081109166
248	0xbd388505	-0.045048732
249	0x3d5e7938	0.054314822
250	0x3ba4dd48	0.0050312616
251	0x3ca363e2	0.019945089
252	0xbd5d6e79	-0.054060433
253	0xbcfd5d23	-0.0309282
254	0xbe988e1e	-0.29795927
255	0x3e283144	0.16425043

base.mlp.fc_h.0.bias f4 [64]
0	0x00000000	0.0
1	0x00000000	0.0
2	0x00000000	0.0
3	0x00000000	0.0
4	0x00000000	0.0
5	0x00000000	0.0
6	0x00000000	0.0
7	0x00000000	0.0
8	0x00000000	0.0
9	0x00000000	0.0
10	0x00000000	0.0
11	0x00000000	0.0
12	0x00000000	0.0
13	0x00000000	0.0
14	0x00000000	0.0
15	0x00000000	0.0
16	0x00000000	0.0
17	0x00000000	0.0
18	0x00000000	0.0
19	0x00000000	0.0
20	0x00000000	0.0
21	0x00000000	0.0
22	0x00000000	0.0
23	0x00000000	0.0
24	0x00000000	0.0
25	0x00000000	0.0
26	0x00000000	0.0
27	0x00000000	0.0
28	0x00000000	0.0
29	0x00000000	0.0
30	0x00000000	0.0
31	0x00000000	0.0
32	0x00000000	0.0
33	0x00000000	0.0
34	0x00000000	0.0
35	0x00000000	0.0
36	0x00000000	0.0
37	0x00000000	0.0
38	0x00000000	0.0
39	0x00000000	0.0
40	0x00000000	0.0
41	0x00000000	0.0
42	0x00000000	0.0
43	0x00000000	0.0
44	0x00000000	0.0
45	0x00000000	0.0
46	0x00000000	0.0
47	0x00000000	0.0
48	0x00000000	0.0
49	0x00000000	0.0
50	0x00000000	0.0
51	0x00000000	0.0
52	0x00000000	0.0
53	0x00000000	0.0
54	0x00000000	0.0
55	0x00000000	0.0
56	0x00000000	0.0
57	0x00000000	0.0
58	0x00000000	0.0
59	0x00000000	0.0
60	0x00000000	0.0
61	0x00000000	0.0
62	0x00000000	0.0
63	0x00000000	0.0

base.mlp.fc_h.2.weight f4 [64]
0	0x3f800000	1.0
1	0x3f800000	1.0
2	0x3f800000	1.0
3	0x3f800000	1.0
4	0x3f800000	1.0
5	0x3f800000	1.0
6	0x3f800000	1.0
7	0x3f800000	1.0
8	0x3f800000	1.0
9	0x3f800000	1.0
10	0x3f800000	1.0
11	0x3f800000	1.0
12	0x3f800000	1.0
13	0x3f800000	1.0
14	0x3f800000	1.0
15	0x3f800000	1.0
16	0x3f800000	1.0
17	0x3f800000	1.0
18	0x3f800000	1.0
19	0x3f800000	1.0
20	0x3f800000	1.0
21	0x3f800000	1.0
22	0x3f800000	1.0
23	0x3f800000	1.0
24	0x3f800000	1.0
25	0x3f800000	1.0
26	0x3f800000	1.0
27	0x3f800000	1.0
28	0x3f800000	1.0
29	0x3f800000	1.0
30	0x3f800000	1.0
31	0x3f800000	1.0
32	0x3f800000	1.0
33	0x3f800000	1.0
34	0x3f800000	1.0
35	0x3f800000	1.0
36	0x3f800000	1.0
37	0x3f800000	1.0
38	0x3f800000	1.0
39	0x3f800000	1.0
40	0x3f800000	1.0
41	0x3f800000	1.0
42	0x3f800000	1.0
43	0x3f800000	1.0
44	0x3f800000	1.0
45	0x3f800000	1.0
46	0x3f800000	1.0
47	0x3f800000	1.0
48	0x3f800000	1.0
49	0x3f800000	1.0
50	0x3f800000	1.0
51	0x3f800000	1.0
52	0x3f800000	1.0
53	0x3f800000	1.0
54	0x3f800000	1.0
55	0x3f800000	1.0
56	0x3f800000	1.0
57	0x3f800000	1.0
58	0x3f800000	1.0
59	0x3f800000	1.0
60	0x3f800000	1.0
61	0x3f800000	1.0
62	0x3f800000	1.0
63	0x3f800000	1.0

base.mlp.fc_h.2.bias f4 [64]
0	0x00000000	0.0
1	0x00000000	0.0
2	0x00000000	0.0
3	0x00000000	0.0
4	0x00000000	0.0
5	0x00000000	0.0
6	0x00000000	0.0
7	0x00000000	0.0
8	0x00000000	0.0
9	0x00000000	0.0
10	0x00000000	0.0
11	0x00000000	0.0
12	0x00000000	0.0
13	0x00000000	0.0
14	0x00000000	0.0
15	0x00000000	0.0
16	0x00000000	0.0
17	0x00000000	0.0
18	0x00000000	0.0
19	0x00000000	0.0
20	0x00000000	0.0
21	0x00000000	0.0
22	0x00000000	0.0
23	0x00000000	0.0
24	0x00000000	0.0
25	0x00000000	0.0
26	0x00000000	0.0
27	0x00000000	0.0
28	0x00000000	0.0
29	0x00000000	0.0
30	0x00000000	0.0
31	0x00000000	0.0
32	0x00000000	0.0
33	0x00000000	0.0
34	0x00000000	0.0
35	0x00000000	0.0
36	0x00000000	0.0
37	0x00000000	0.0
38	0x00000000	0.0
39	0x00000000	0.0
40	0x00000000	0.0
41	0x00000000	0.0
42	0x00000000	0.0
43	0x00000000	0.0
44	0x00000000	0.0
45	0x00000000	0.0
46	0x00000000	0.0
47	0x00000000	0.0
48	0x00000000	0.0
49	0x00000000	0.0
50	0x00000000	0.0
51	0x00000000	0.0
52	0x00000000	0.0
53	0x00000000	0.0
54	0x00000000	0.0
55	0x00000000	0.0
56	0x00000000	0.0
57	0x00000000	0.0
58	0x00000000	0.0
59	0x00000000	0.0
60	0x00000000	0.0
61	0x00000000	0.0
62	0x00000000	0.0
63	0x00000000	0.0

base.mlp.fc2.0.0.weight f4 [64, 64]
0	0xbd4eedb0	-0.050519645
1	0xbe4b74c6	-0.19868764
2	0x3d7dbbf2	0.061946817
3	0x3ed4d232	0.41566616
4	0x3d833bac	0.06407866
5	0xbe1f43b8	-0.15553176
6	0xbe22335b	-0.15839903
7	0xbe153090	-0.14569306
8	0xbe8e7a54	-0.27827704
9	0xbe1de03b	-0.15417568
10	0x3e07b69e	0.13253257
11	0xbdac965a	-0.08427115
12	0x3f1db598	0.61605215
13	0x3db66f98	0.089080036
14	0x3e51e57e	0.204977
15	0x3d8829af	0.066485755
16	0x3ec3a831	0.38214257
17	0xbd43dc2e	-0.0478174
18	0x3ea4df96	0.32201833
19	0xbe2c39df	-0.16818951
20	0xbe495140	-0.196599
21	0x3df1a6ee	0.117994174
22	0x3d80eeb0	0.06295526
23	0x3e2bdabf	0.16782664
24	0xbd88c19a	-0.066775516
25	0x3d60f9b5	0.05492564
26	0x3ea79fd0	0.32739115
27	0x3eaace30	0.33360434
28	0xbdc6bf14	-0.09704414
29	0xbd9ce5b7	-0.07661002
30	0xbebf07ac	-0.3731054
31	0xbf46659c	-0.77498794
32	0x3eb9913f	0.36243626
33	0xbe91c949	-0.2847388
34	0x3d63d9d9	0.055627678
35	0x3e5dedf8	0.21672809
36	0xbe5e387f	-0.21701239
37	0x3db5391d	0.08848784
38	0xbe5fd16b	-0.2185723
39	0xbe130842	-0.14358619
40	0xbc5a783a	-0.013334328
41	0x3e162c09	0.14665236
42	0xbe35c1a6	-0.17749652
43	0x3e5b14d9	0.21394671
44	0xbf17a6e8	-0.59239054
45	0xbe3f5dd1	-0.18688132
46	0x3eb94cb2	0.36191326
47	0xbe4b2f15	-0.19842179
48	0xbdded584	-0.108805686
49	0xbc8f6441	-0.01750386
50	0xbeccd51b	-0.40006337
51	0x3c29e005	0.010368352
52	0xbe98b670	-0.2982669
53	0xbeb3e6bd	-0.35136977
54	0x3e81c4ff	0.2534561
55	0x3f3f36df	0.746931
56	0x3e084f7a	0.13311568
57	0x3daa9f43	0.08331158
58	0x3d51f5b2	0.051259704
59	0xbdfcc692	-0.12342562
60	0x3e03e796	0.12881312
61	0xbee00738	-0.43755507
62	0xbec95494	-0.3932234
63	0xbebdf515	-0.37101045
64	0xbed99efc	-0.42504108
65	0x3eae53c5	0.34048286
66	0xbe1431c9	-0.14472117
67	0x3eecdf6c	0.46264207
68	0x3e5bdf81	0.21471979
69	0x3e8e12cc	0.27748716
70	0x3e526813	0.20547514
71	0x3e4d5a79	0.20054044
72	0xbe81d704	-0.25359356
73	0xbd8152a9	-0.06314594
74	0xbdb9efdc	-0.09078953
75	0xbe2692d8	-0.16266954
76	0x3dfb284e	0.12263547
77	0x3e893b1d	0.26802912
78	0xbdd41489	-0.10355479
79	0xbc1af33c	-0.009457406
80	0x3da135bd	0.07871578
81	0x3e2ca493	0.16859655
82	0xbeb34bb2	-0.35018688
83	0xbdbb74a7	-0.09153109
84	0xbd870bad	-0.06594024
85	0xbe147cf9	-0.14500798
86	0xbce803c6	-0.028322112
87	0x3d625700	0.05525875
88	0x3dd50618	0.10401553
89	0x3d539491	0.051655356
90	0x3e97eed1	0.2967439
91	0xbe4a7394	-0.19770652
92	0xbe86adf1	-0.26304582
93	0xbcd64058	-0.026153728
94	0x3df334a1	0.118752725
95	0x3d592e1b	0.053022485
96	0x3cf94a8d	0.030431056
97	0xbdbb6c6e	-0.09151541
98	0x3e5e0339	0.21680917
99	0x3d14e167	0.036347773
100	0x3d3723a7	0.044711735
101	0xbe8eca57	-0.27888748
102	0x3d2c49be	0.042062514
103	0xbe24fbcd	-0.1611168
104	0xbde859cc	-0.113452524
105	0xbcf55c13	-0.029951131
106	0xbda6b628	-0.08140212
107	0xbd64cb56	-0.05585798
108	0x3da415e3	0.08011987
109	0x3e506679	0.2035159
110	0x3c46317a	0.012096757
111	0x3ea16058	0.31518817
112	0xbddafbf5	-0.10692588
113	0x3d817450	0.06321013
114	0x3e8dd243	0.2769948
115	0xbef1242b	-0.47097906
116	0x3e160172	0.14648989
117	0xbdcba836	-0.09944193
118	0x3debe613	0.115184925
119	0xbe8efa5a	-0.27925378
120	0x3dd6c519	0.10486812
121	0x3e1f20ec	0.15539902
122	0xbd5768ab	-0.052590054
123	0xbdaba995	-0.083819546
124	0xbb67797c	-0.0035320213
125	0x3cfcc648	0.030856267
126	0x3dd04933	0.10170212
127	0xbdd64bd4	-0.10463682
128	0xbd35433b	-0.04425357
129	0x3cfc481d	0.030796105
130	0xbe961337	-0.29311535
131	0x3da4ed01	0.080530174
132	0xbd2d7bf9	-0.042354558
133	0x3e2f3e21	0.17113544
134	0xbd498292	-0.049196787
135	0xbe80747a	-0.25088865
136	0x3ee2a67e	0.44267648
137	0x3eb80496	0.35941
138	0x3eb0c48b	0.3452495
139	0x3eddbdf9	0.43309
140	0xbdfa587f	-0.122239105
141	0x3e02a295	0.12757333
142	0xbe753df6	-0.23949417
143	0x3ceae053	0.02867142
144	0xbe47ff4f	-0.19530986
145	0xbeb3d7f5	-0.351257
146	0xbeee6b7a	-0.46566373
147	0x3d7dedfa	0.06199453
148	0xbde9bf5f	-0.11413454
149	0xbc642c4c	-0.013926577
150	0xbc6df85a	-0.014524544
151	0xbe655d0e	-0.22398779
152	0x3e29ce80	0.1658268
153	0xbea20830	-0.31646872
154	0x3d9c13db	0.07620975
155	0xbe45a98a	-0.19302955
156	0xbdf9ef03	-0.12203791
157	0xbeb69299	-0.3565872
158	0x3e255a64	0.16147763
159	0x3efeb93f	0.49750707
160	0x3e524579	0.20534314
161	0x3e925fe7	0.28588793
162	0x3c71f0d0	0.014766887
163	0xbe2a2843	-0.16616921
164	0xbe8042e4	-0.25051033
165	0x3efa3ba4	0.48873627
166	0xbebadbe4	-0.36495888
167	0x3eb5ab9f	0.354825
168	0xbca5248e	-0.020159032
169	0xbeb16781	-0.3464928
170	0x3da7afd1	0.08187831
171	0xbe672e76	-0.22576317
172	0x3e7b06d9	0.24514331
173	0xbdca10d4	-0.09866491
174	0xbe4ad88e	-0.19809172
175	0x3de51deb	0.11187347
176	0x3bff79f6	0.0077965213
177	0xbeac08b6	-0.33600396
178	0x3e6e64e9	0.23280682
179	0x3d77240a	0.060337104
180	0x3df5ab34	0.11995545
181	0xbd0688c1	-0.032845262
182	0xbcbbbe0b	-0.022917768
183	0x3e5c6200	0.21521759
184	0x3e20ae0e	0.15691397
185	0x3e0db38e	0.13838026
186	0xbe6b3385	-0.22968872
187	0xbe0b0238	-0.13575065
188	0x3ddf5d09	0.10906417
189	0xbcb9581a	-0.022625018
190	0xbeced200	-0.40394592
191	0x3e225147	0.15851317
192	0x3eadbe79	0.33934382
193	0xbe59ab26	-0.21256694
194	0xbd9bb587	-0.07602983
195	0x3d7a6bc7	0.06113794
196	0x3e154959	0.14578761
197	0x3c9f37f2	0.019435856
198	0xbce47a8f	-0.027890472
199	0xbd37fe5a	-0.044920303
200	0xbdb738bb	-0.08946367
201	0xbd976da1	-0.07393957
202	0x3dc41161	0.09573627
203	0xbe0a93f7	-0.13533007
204	0x3df8c305	0.12146572
205	0x3c523a42	0.012831273
206	0xbd440ef3	-0.04786582
207	0x3ed29c6d	0.41134968
208	0xbd072500	-0.03299427
209	0xbd674588	-0.056462795
210	0xbe798c79	-0.24369992
211	0xbbedd03f	-0.007257491
212	0xbef95e1a	-0.48704606
213	0xbec50bd1	-0.38485578
214	0xbe6ac182	-0.2292538
215	0x3d5c7040	0.053817987
216	0xbe239ad9	-0.15977038
217	0xbd5e8cd7	-0.054333534
218	0x3d945fe6	0.07244854
219	0xbe88369d	-0.26604167
220	0x3c94a273	0.018143868
221	0xbe5bb232	-0.21454695
222	0xbd1e91d9	-0.03871331
223	0x3e4e750d	0.20161839
224	0xbf1d71d0	-0.6150179
225	0xbda76c3b	-0.0817494
226	0x3d7000bc	0.05859445
227	0xbea91b8f	-0.33028838
228	0x3e87817e	0.26465982
229	0xbe099b48	-0.13438141
230	0x3e42b33e	0.19013688
231	0x3ccb67b3	0.024829721
232	0x3da17695	0.07883946
233	0x3d625925	0.055260796
234	0x3e1c347a	0.15254393
235	0xbe7d8e69	-0.24761356
236	0x3edbf709	0.4296191
237	0x3d8fe053	0.07025208
238	0xbdd47ae4	-0.10375002
239	0xbb3183e7	-0.0027086677
240	0x3e7d8de8	0.24761164
241	0x3eb5709e	0.35437483
242	0xbe6c6b05	-0.230877
243	0xbd689cc9	-0.056790147
244	0x3de8b5a3	0.113627695
245	0xbd87fbba	-0.0663981
246	0xbe2d930b	-0.16950624
247	0xbcd82680	-0.026385546
248	0xbd297cb0	-0.041378677
249	0x3de3b30b	0.11118134
250	0x3dd8c426	0.10584287
251	0xbcf18bfd	-0.029485697
252	0xbd2e23a6	-0.042514466
253	0xbd61b14d	-0.055100728
254	0xbe6e70e8	-0.23285258
255	0x3e27b47d	0.16377445

base.mlp.fc2.0.0.bias f4 [64]
0	0x3e010d13	0.12602644
1	0x3cd45273	0.025918221
2	0x3d45b491	0.048267905
3	0x3cdaf055	0.026725927
4	0xbb7bbe68	-0.0038413052
5	0x3c9a5f50	0.018844277
6	0x3c904b3f	0.017614005
7	0x3cc2a163	0.023758596
8	0x3cd76476	0.02629302
9	0x3cde78b6	0.027157169
10	0xbd4f6213	-0.05063064
11	0x3cc01f72	0.023452494
12	0x3d1ed5d1	0.03877813
13	0x3bf627a3	0.0075120493
14	0x3ce77d27	0.02825792
15	0x3a7d15ba	0.00096544216
16	0x3cd4dd55	0.025984446
17	0xbd5a6373	-0.0533175
18	0x3d820991	0.06349481
19	0x3c40ed17	0.011775277
20	0xbcb7a07c	-0.022415392
21	0xbbe4a425	-0.0069775754
22	0x3d0516ac	0.032492325
23	0xbd4fc490	-0.050724566
24	0x3ba3083e	0.004975348
25	0x3d10779b	0.035270315
26	0xbc717542	-0.014737429
27	0x3c1cc19b	0.0095676435
28	0x3db4ce32	0.08828391
29	0xbce7cd3c	-0.028296106
30	0x3c554c89	0.013018736
31	0xbd476b49	-0.0486863
32	0x3d1fede9	0.03904525
33	0x3cee504c	0.029091023
34	0x3d30fe2d	0.04321115
35	0x3cf7df30	0.030257791
36	0xbd37b7a3	-0.044852864
37	0xbd14740e	-0.03624349
38	0x3ca56635	0.020190338
39	0x3bce1308	0.00628889
40	0x3d412d3e	0.047162287
41	0xbd343b74	-0.04400201
42	0xbc9260d2	-0.017868433
43	0x3d091689	0.033468757
44	0x3c9c1e77	0.019057496
45	0xbc23ea35	-0.01000457
46	0xbd133351	-0.03593761
47	0x3cc5504f	0.024086146
48	0xba97bb9d	-0.0011576299
49	0xbcb0ae30	-0.021567434
50	0x3c79a991	0.015238182
51	0x3bf64be0	0.007516369
52	0x3d2f7c6b	0.042843264
53	0x3ccaf4cf	0.024774937
54	0x3d24c87b	0.040230256
55	0xbc0a6679	-0.008447283
56	0xbc11dd66	-0.008902883
57	0xbbfba81f	-0.0076799537
58	0x3c9bebd0	0.019033343
59	0x3cc2d533	0.023783302
60	0x3de31525	0.110880174
61	0x3ba3d45f	0.004999682
62	0x3e145437	0.1448525
63	0xbaf9023d	-0.001899786

base.mlp.fc2.0.2.weight f4 [64]
0	0x3f576ce0	0.84150505
1	0x3f76d565	0.96419364
2	0x3f7a2b39	0.977222
3	0x3f7eef71	0.9958411
4	0x3f5d1508	0.86360216
5	0x3f812f32	1.0092528
6	0x3f669e8b	0.9008567
7	0x3f68744e	0.90802467
8	0x3f722fdc	0.9460428
9	0x3f75a5d3	0.9595615
10	0x3f7aad30	0.97920513
11	0x3f6d800a	0.927735
12	0x3f7c4b1c	0.9855211
13	0x3f711c52	0.9418384
14	0x3f6b8227	0.9199547
15	0x3f6fd318	0.9368148
16	0x3f734aef	0.95036215
17	0x3f7a133f	0.9768562
18	0x3f477a3f	0.7792091
19	0x3f5115af	0.8167371
20	0x3f6f7ad8	0.9354682
21	0x3f7528a6	0.9576515
22	0x3f55a508	0.8345494
23	0x3f7044e0	0.93855095
24	0x3f7377f5	0.95104915
25	0x3f6f6b3e	0.93523014
26	0x3f73341e	0.950014
27	0x3f515fe4	0.8178694
28	0x3f583a05	0.8446353
29	0x3f787924	0.97059846
30	0x3f7cf562	0.98811924
31	0x3f7111ed	0.9416798
32	0x3f7335ae	0.95003784
33	0x3f68cf4c	0.9094131
34	0x3f814bf9	1.010131
35	0x3f72eab6	0.9488939
36	0x3f79b010	0.97534275
37	0x3f70c7de	0.94054973
38	0x3f7ac9f0	0.9796438
39	0x3f74e307	0.95658916
40	0x3f5ada94	0.85489774
41	0x3f774590	0.9659052
42	0x3f472284	0.7778704
43	0x3f6d8e11	0.927949
44	0x3f72028c	0.94535136
45	0x3f73072b	0.9493281
46	0x3f78a036	0.9711946
47	0x3f7396d9	0.9515205
48	0x3f747ddc	0.95504546
49	0x3f793f72	0.97362435
50	0x3f751f74	0.9575112
51	0x3f5177ac	0.8182323
52	0x3f6c7664	0.9236815
53	0x3f7578c7	0.95887417
54	0x3f3fc425	0.7490867
55	0x3f6f75a3	0.93538874
56	0x3f734104	0.9502108
57	0x3f7245f5	0.94637996
58	0x3f678d22	0.90449727
59	0x3f660a1d	0.8985918
60	0x3f67a0b7	0.90479606
61	0x3f741a47	0.95352596
62	0x3f475ac0	0.7787285
63	0x3f69dcd8	0.91352606

base.mlp.fc2.0.2.bias f4 [64]
0	0xbd8c3fde	-0.06848119
1	0x3c50b032	0.012737321
2	0x3b339305	0.0027400863
3	0x3cdea160	0.027176559
4	0x3df0c6f3	0.117566966
5	0x3c9d8739	0.019229518
6	0x3cf7db83	0.030256039
7	0x3ca5128d	0.020150447
8	0x3cddbf50	0.027068764
9	0xbd5163b9	-0.051120494
10	0xbca0e5cd	-0.019640828
11	0x3ca672fc	0.0203185
12	0x3c9ea019	0.01936345
13	0xbc30618a	-0.010765443
14	0x3cdb9b7d	0.026807541
15	0x3d2100c9	0.03930739
16	0x3c4d9859	0.01254853
17	0xbc558256	-0.013031563
18	0xbdc153ff	-0.09439849
19	0x3d127e56	0.035765015
20	0xbcadf178	-0.021233305
21	0xbcdb224c	-0.026749752
22	0x3d4e3cd4	0.05035098
23	0xbc9e7804	-0.019344337
24	0xbccae50f	-0.024767427
25	0xbd55ff6b	-0.05224554
26	0x3c82d8b2	0.015972469
27	0x3b911156	0.0044271154
28	0xbdab092e	-0.0835136
29	0xbc646584	-0.013940219
30	0x3ba6cb35	0.005090142
31	0x3d075261	0.033037547
32	0x3d075abb	0.03304551
33	0x3cd8f72d	0.02648505
34	0x3cf83310	0.030297786
35	0x3bc733b6	0.0060791625
36	0x3ba579db	0.0050499267
37	0xbcb41a97	-0.021985335
38	0x3cdc5865	0.026897619
39	0xbcd5fe2f	-0.02612218
40	0xbddab17c	-0.10678384
41	0xbc9be14c	-0.019028328
42	0xbd8cd050	-0.0687567
43	0x3ca7e44d	0.020494604
44	0x3cb72b72	0.022359584
45	0xbc89e64e	-0.01683345
46	0xbc989c11	-0.018629106
47	0x3cf9fc9e	0.030515965
48	0xbd05e61f	-0.032690164
49	0xbc814031	-0.01577768
50	0xbd8e3897	-0.069443874
51	0xbc275e74	-0.0102153905
52	0x3b88c932	0.004174375
53	0x3a91fb75	0.0011137562
54	0xbe1ff4f8	-0.15620792
55	0x3d449b8f	0.047999915
56	0x3c1544aa	0.009110609
57	0xbc8efae0	-0.01745361
58	0x3caca2b8	0.021073684
59	0x3caf8c54	0.021429218
60	0xbce8cba4	-0.028417416
61	0xbc309be4	-0.010779355
62	0xbe0de13d	-0.13855453
63	0x3d15beb1	0.03655881

v_out.weight f4 [1, 64]
0	0x3c1543c6	0.009110397
1	0xbd4eae79	-0.05045936
2	0xbd2ca23f	-0.042146917
3	0xbe0a1cc3	-0.13487534
4	0x3c2caa03	0.010538581
5	0xbdd6547d	-0.104653336
6	0xbdf29363	-0.11844518
7	0xbd122dc7	-0.035688188
8	0xbcc4ace2	-0.024008218
9	0x3d0a4b85	0.033763427
10	0x3e5eb930	0.21750331
11	0x3c176253	0.009239751
12	0xbdbe9671	-0.09306038
13	0x3d2462e9	0.04013339
14	0xbda4a3b0	-0.080390334
15	0xbce522e8	-0.027970746
16	0xbd33a5e3	-0.043859374
17	0x3dd1538a	0.10221012
18	0x3b7e3135	0.0038786654
19	0x3c46e169	0.012138703
20	0x3e6d7f4e	0.23193094
21	0x3d30bc05	0.04314806
22	0xbc6122ee	-0.013741238
23	0x3e3c4353	0.18385057
24	0x3e1194e5	0.14216955
25	0x3cbf4dbb	0.023352494
26	0x3cc8b462	0.024500076
27	0xbc4824fe	-0.012215851
28	0xbc6041e1	-0.013687582
29	0x3dba52ec	0.09097847
30	0xbd321953	-0.043481182
31	0x3c565104	0.013080839
32	0xbe119718	-0.14217794
33	0xbe0220b0	-0.12707782
34	0xbe401f5b	-0.18761961
35	0xbc4b2662	-0.012399288
36	0x3d3d4721	0.046210412
37	0x3e9e311d	0.30896845
38	0xbd3db67f	-0.04631662
39	0x3dfd5219	0.123691745
40	0xbc0fd058	-0.0087777
41	0x3e3f81d5	0.1870187
42	0xbbc9da33	-0.0061600446
43	0xbcab9335	-0.020944217
44	0xbd962b02	-0.07332422
45	0x3cf61402	0.030038837
46	0x3d0ee287	0.034884002
47	0xbe31ddc4	-0.17369753
48	0x3d7f4444	0.062320963
49	0x3e0a49ab	0.13504665
50	0x3cd96487	0.026537193
51	0x3bf825c8	0.0075728633
52	0xbc604d03	-0.013690236
53	0xbd62e1a4	-0.05539097
54	0xbbcce1f6	-0.0062525226
55	0xbd02dc1b	-0.03194819
56	0x3d0ecfbd	0.034866083
57	0x3d768652	0.06018669
58	0xbcf53bd4	-0.029935755
59	0xbd7fe8ae	-0.06247776
60	0xbc74f83b	-0.014951761
61	0x3d1985f7	0.037481274
62	0x3b4e1242	0.0031443988
63	0xbdb175d4	-0.08665052
